code/flutterTest/test/.dart_tool/chrome-device/Default/optimization_guide_prediction_model_downloads/0bf2a956-8508-4d9e-8f8d-8164f777dd14/model.tflite (tflite, 410364 bytes, 166 tensors)

context_transformer_0/bottleneck_input/norm/add f4 [32]
00000000: 2678 853c c811 8fbd 6e44 1ebe 9492 a63d
00000010: b6a8 553e 90a0 133d 2409 b9bb 5842 4bbd
00000020: 2c44 b3bd 2f82 043d 8162 42bd c8f9 5bbc
00000030: b94b 13bd 9b06 983d ec2d 863c b6da cbbd
00000040: e819 0a3e 8a26 39be a10f 353d 53b6 51bd
00000050: 558a 013c d6c8 4abd a053 903c 6376 dc3d
00000060: 5a7b 053e d2ff 9dbb 4427 2fbd 7313 8c3d
00000070: 8d8a 3bbe 8238 653d 92a6 bb3d fdd7 183d
0.016292643 -0.069858134 -0.15455791 0.08133426 0.2086514 0.036041796 -0.0056468416 -0.049623817
-0.08753237 0.032350715 -0.047457222 -0.013426252 -0.035960887 0.07423135 0.01637932 -0.09953825
0.13486445 -0.18081108 0.044204358 -0.05119927 0.007906516 -0.04950794 0.017618 0.10764768
0.13035336 -0.004821756 -0.042762056 0.06839647 -0.18314572 0.055962093 0.0916263 0.037315357

context_transformer_1/bottleneck_input/norm/add f4 [32]
00000000: ddb9 aabd d3da 373e 1c15 893e 9b6f 1cbe
00000010: 8def f33c 5915 5c3d e1b6 19bc 1e35 1bbe
00000020: 39fc 183e b2de 72bd 5f97 2fbe 5db1 813d
00000030: 685f 4c3e b726 553e 82c0 553e 1074 85bd
00000040: b62d a13d 76e6 fd3b 2218 083e cb30 07bd
00000050: 7ef0 fdbd 18c9 b0bb 34d4 c9bd e83c f73d
00000060: db37 633c d138 9cbd 966e 6a3c d610 8e3e
00000070: cea0 273e 221c c03c e06a 4e3d f444 3e3d
-0.08336232 0.17954569 0.26773918 -0.15276949 0.029777313 0.053731296 -0.009381981 -0.15156981
0.14939965 -0.05929441 -0.17147587 0.063326575 0.1995827 0.2081555 0.20874217 -0.06516278
0.07870047 0.0077484204 0.13290456 -0.033005517 -0.12399386 -0.005395066 -0.09854928 0.12072164
0.013868297 -0.07628024 0.014308592 0.2774722 0.16369936 0.023450915 0.050394893 0.046452478

mention_transformer_0/bottleneck_input/norm/add f4 [32]
00000000: a8e9 c5bd 1040 653e 0ec9 be3d 4ade e9bd
00000010: 8280 c8bc 7afa b8bc fc88 953e 8ed2 1f3d
00000020: df93 cfbd 6393 3cbb 6657 163d 4e5f 183d
00000030: a8f8 5ebe a45b 073e f4ae c9bd 6e4d 5abe
00000040: be20 c2ba 1335 833e 131a 603e 7f5e 813e
00000050: 6dd6 a2bb bead 24be b7f9 923d 4cd1 9cbc
00000060: 0b82 5f3d a37f e0bc 86ae acbd 26f7 7abd
00000070: 7e02 f93c 9ad7 44bc 2aa5 a23d 966c 8f3c
-0.09663707 0.22387719 0.09315692 -0.114193514 -0.02447534 -0.022580374 0.29206073 0.03901916
-0.10135626 -0.0028774373 0.036704443 0.037200265 -0.21774542 0.13218552 -0.09847823 -0.213186
-0.0014810783 0.2562643 0.21884947 0.25267407 -0.004969409 -0.16081902 0.071765356 -0.01914277
0.054567378 -0.027404612 -0.08431725 -0.061270855 0.030396696 -0.012014294 0.07941659 0.017507832

mention_transformer_1/bottleneck_input/norm/add f4 [32]
00000000: acba 023d f8b4 da3d b102 9ebe 6f48 fbbe
00000010: 73fc 843e a79e 483e 7cec 0a3e 087a 55bd
00000020: 829e a6bd 2aa9 3abe fb5c 9fbe 7a4d 933e
00000030: bcce 853e 70dc b2be 7051 ddbd 9b31 dfbe
00000040: 8d48 7dbe 1619 75bd f9f5 973c 5199 f5bd
00000050: a58f eb3c ca55 babd 95fa cb3e e184 04be
00000060: c834 9abd 00c2 c53e 11f5 81be 8e0d f5bd
00000070: 2402 cebc 82cd 193e ad41 25bd 3559 b6be
0.031916305 0.10679048 -0.30861428 -0.490787 0.25973853 0.19591771 0.13566774 -0.05211833
-0.08135702 -0.18228593 -0.31125626 0.28770047 0.26134288 -0.34933805 -0.108065486 -0.43592533
-0.24734707 -0.059838377 0.018549906 -0.119921334 0.028755018 -0.09098394 0.39839616 -0.12941314
-0.075295985 0.38624573 -0.25382283 -0.11965476 -0.025147505 0.15019801 -0.040345836 -0.35614935

context_transformer_0/attention/value/add;context_transformer_0/attention/value/einsum/Einsum;context_transformer_0/attention/value/add/ReadVariableOp/resource f4 [32]
00000000: e62d 1d3d 148c 7bbd a09e 8f3c 4681 6c3d
00000010: f6f3 8c3d 7eba 8d3c f15c 4bbd 1860 043d
00000020: 5128 9abc 8776 0dbd 49c2 953d 6bdd b5bc
00000030: 05dd 6abc ccd2 54bd 5650 053e 3ce5 8cbd
00000040: 3242 4b3d 1eab 4bbd 81a9 a33c 2760 523d
00000050: 834f a33d 95fc 993d cd01 e939 04f5 7a3d
00000060: 2842 673d 9fca d8bc 8f97 0c3c 833f 9e3d
00000070: 8297 b6bb 52ba c1bc 0247 c1bd 37e2 9fbd
0.03837385 -0.061412886 0.017531693 0.057740472 0.06882469 0.01730084 -0.049649183 0.032318205
-0.018818052 -0.034536865 0.073124476 -0.022200307 -0.014334922 -0.051958844 0.13018927 -0.068796605
0.049623676 -0.049723737 0.019978287 0.05136123 0.0797415 0.07518879 0.00044442565 0.06126882
0.056459576 -0.026463805 0.008581056 0.07726958 -0.0055722604 -0.023648415 -0.09437372 -0.07806819

context_transformer_0/bottleneck_input/norm/mul f4 [32, 32]
00000000: 470e b13e 2064 c6bd 3d7a 38bd d638 26bf
00000010: d1bd 2a3e b293 d2be a62a d33e 225a 233f
00000020: 179a 2c3e d5a1 dfbe ea53 c33d c6fc 8c3e
00000030: 7923 40bd 0ab8 dc3e 0c37 d1bd 6f91 343f
00000040: 0456 973e 4b71 773e 6ac5 4d3d a353 5f3f
00000050: 11e9 59bf 4b65 c0bd 45e3 813c ff19 cabd
00000060: ae36 993e a643 84bd d665 d9bd 799c 0cbe
00000070: 3ee9 0abf fad5 b43e d101 4cbe 444a 44be
00000080: d5cc a2be d0d1 d53e dda5 a83d 3f0e 5b3e
00000090: b5ac 78bd 283c fc3d d0d7 f3be 8359 28be
000000a0: 90f3 e93d c679 183e e29a fc3e 9542 993e
000000b0: b828 b13d 16a5 2cbf 9d95 6b3e 14bd 8f3e
000000c0: 68d1 be3c 551c 17bf 5df3 283d 31fd 6b3d
000000d0: 6ebb 49bd e752 9c3e ae26 88be 47f2 953e
000000e0: 1b4f 4cbe cfc8 d53e 772f f9be 2f4d 123f
000000f0: 403f 72be 67b4 18bf bf6e bebe 8d4a 8e3e
00000100: 7802 6dbd 9651 d4be 799b 3a3e 9f80 80bd
00000110: d70f fcbd 62ed 103c 3a4c f1bd b883 9abc
00000120: 06d3 c73e d050 1cbf 1bce c3bc 5ec3 5d3e
00000130: d00d 863e 22fc 543e f524 7e3e c565 b1be
00000140: d4ef b4be 4051 c73d 91dc f9be 8c72 53be
00000150: 9ff3 0fbf 0921 ecbe 72e2 ffbe 1654 5fbf
00000160: 5434 253e 69ca 803d f862 3abe 2f68 d63e
00000170: 63bb 51bf ed73 b6be d435 75be e0bf b33b
00000180: a93e 06bf bd4f 493f 5cf0 11be 1163 943e
00000190: efba 6ebe 78f8 383e ff22 8dbe 5f47 a1bb
000001a0: 0efa 44be 2b7f ab3d 2e9c 243e 9621 febd
000001b0: 1efc 4c3e 176e dfbd 40fe 5e3c 2e9b 3cbe
000001c0: fbe6 1cbe 9cad f9bc 8a13 2cbe efe5 33be
000001d0: 1937 283e b870 123e 3cea 02bf c300 9cbe
000001e0: b08f 47bd a354 2f3c 4e94 0ebd c1e9 423d
000001f0: 59a8 f1bd 6544 013e 53af bcbd dbc9 db3d
00000200: a4c6 393e 5452 7d3d 5f9d fabc d3b0 debe
00000210: d601 30be d569 9fbe c2f6 5c3c faeb ecbe
00000220: 0c94 38be 5338 ea3d 8d42 3a3d 64a8 f9bc
00000230: e991 52be 9d93 a13e 9e9a 933c 555a 8d3e
00000240: a20f 64bd 1ad4 ad3e 5315 963e 5ec3 223f
00000250: fd81 c03e 950a de3d a9cd 5d3e 35cf 97bc
00000260: 73b6 a7bd fd85 3ebe 503d 043e 24a7 45be
00000270: 93a1 d13d 015b e53e 5d7d 303f c7b2 90bc
00000280: 722a 0abe 8d52 b63e 0472 05be d24e 7fbe
00000290: 79aa afbc 7a75 58bc bbca 52be ba8c 83be
000002a0: 45cb 1a3d 1f52 453d d473 a6bd 7d4a ce3d
000002b0: d660 22bd 7e1f 01bf b55a 9abc 0965 75be
000002c0: 209f 443d 37ed 26be aee7 533e 292d 883e
000002d0: 0085 50bb ffd4 0e3d b374 0dbd 676d d73d
000002e0: 4874 e5bd bfb0 c4bc e250 66bd 478e 23be
000002f0: 61b4 bc3e 4559 a8be 122b 873d 58a0 9ebe
00000300: 0f05 a03d 3faa 9f3d 2ee6 b5bd f5bb 45be
00000310: bc96 c43d d200 feba ebc2 6ebd ad48 f7be
00000320: a243 693d 2fc9 2cbe 4980 63be e088 79bc
00000330: ac16 08be 4b9f 1cbf 7e70 1a3e a71b 0abe
00000340: 0c65 85bd 76fd 2fbe 4ea0 62bd 8c3b 743e
00000350: bdde 2fbe e5c9 2b3d ec69 c9bc 32df 75be
00000360: b345 f6bd 1bc6 803e 1107 87be 6f87 303e
00000370: 82a3 24bd 854f ea3d 931d 34be 5136 e8be
00000380: 70fa 213e 338a 9dbd 73b6 db3d d611 2abd
00000390: af98 f33d d347 3fbd 4a9a c4bc ba02 6a3e
000003a0: 8894 84bd 88b5 873d 92ec 5e3c 7b2e 133e
000003b0: b8c2 a83d df41 5e3e cb9b c33d 1795 9d3e
000003c0: 68ac afbd 7c0e fdbd d88b 233e 1700 07be
000003d0: 31c9 d4bd defe 883d fd68 34bd 4d10 ba3d
000003e0: f10b 5c3c 4232 10be 9c15 6d3e 8e85 83bd
000003f0: 6ac1 68be 518a 12be 3fe9 08be 5359 043d
0.34581205 -0.09687066 -0.04503845 -0.64930475 0.16673972 -0.41128308 0.41243476 0.63809407
0.16855656 -0.43678156 0.0953749 0.275366 -0.04690883 0.4310916 -0.102155775 0.70534414
0.29557812 0.24164312 0.050237097 0.87236995 -0.85121256 -0.0939432 0.01585544 -0.098682396
0.2992453 -0.064582154 -0.10615127 -0.13731565 -0.5426215 0.353195 -0.19922568 -0.19168955
-0.317969 0.41761637 0.08234761 0.21392153 -0.06071158 0.123161614 -0.4762559 -0.16440396
0.11423409 0.14890203 0.49336916 0.2993361 0.086503446 -0.674394 0.23006292 0.28073943
0.023293212 -0.59027606 0.041247714 0.05761451 -0.049251013 0.30532 -0.2659201 0.29286405
-0.19952051 0.41754767 -0.48669025 0.5714902 -0.2365694 -0.5965027 -0.37193868 0.27791253
-0.057863683 -0.41468495 0.1822337 -0.062745325 -0.12307709 0.008845659 -0.11782117 -0.018861637
0.39028186 -0.6106081 -0.02390199 0.21656558 0.26182413 0.20799306 0.24818785 -0.34647956
-0.35339224 0.09732294 -0.4880109 -0.20649165 -0.5623111 -0.46118954 -0.49977452 -0.8723768
0.16133243 0.06288607 -0.18201816 0.4187636 -0.81926554 -0.3563532 -0.23946315 0.0054855198
-0.5243936 0.78637296 -0.14251846 0.28981832 -0.23313497 0.18063533 -0.27565762 -0.004921838
-0.19236013 0.08373865 0.16075203 -0.1240875 0.2001805 -0.1090967 0.013610423 -0.18418571
-0.15322487 -0.030478291 -0.16804329 -0.17568181 0.16427268 0.14300811 -0.51138663 -0.3046933
-0.048721015 0.010701331 -0.034809403 0.047586206 -0.11799688 0.12623747 -0.09213128 0.1073186
0.18142182 0.061846092 -0.030592619 -0.4349428 -0.171882 -0.3113543 0.013486566 -0.46273786
-0.18025225 0.11436524 0.045473624 -0.030475803 -0.20563473 0.31557932 0.018018063 0.2760798
-0.05567897 0.33950883 0.29313144 0.63579357 0.37599173 0.10841862 0.21660484 -0.018531421
-0.08189096 -0.186058 0.12914014 -0.1930204 0.10235896 0.44795993 0.6894129 -0.017663373
-0.13492754 0.35609856 -0.13031775 -0.24932411 -0.021443592 -0.013211602 -0.20585148 -0.25693303
0.03779151 0.04817402 -0.08127561 0.10072801 -0.03964313 -0.5043868 -0.01884208 -0.23964323
0.048003316 -0.16301428 0.20693848 0.26596954 -0.0031817555 0.034871098 -0.03453512 0.10518914
-0.112038195 -0.02401006 -0.05622948 -0.15972243 0.36856368 -0.32880607 0.06600012 -0.30981708
0.07813465 0.07796144 -0.08881794 -0.19309981 0.09599063 -0.0019378907 -0.058291357 -0.48297635
0.056949265 -0.1687362 -0.22216906 -0.015230387 -0.13289899 -0.6118056 0.15081975 -0.13487111
-0.06513414 -0.17186531 -0.05532866 0.2385084 -0.17174812 0.04194059 -0.02458664 -0.24010924
-0.12025013 0.25151142 -0.2637258 0.17239164 -0.040194996 0.114409484 -0.17589407 -0.4535394
0.1581819 -0.07692375 0.10728159 -0.041520916 0.118943565 -0.046699356 -0.023999352 0.22852603
-0.064736426 0.06626421 0.013606207 0.143732 0.08240265 0.21704815 0.095511995 0.3077781
-0.08577806 -0.12356278 0.15971315 -0.13183628 -0.10389937 0.06689237 -0.044045437 0.090851404
0.013430581 -0.14081672 0.23152775 -0.06421958 -0.22730032 -0.14310576 -0.13370226 0.03231175

context_transformer_0/kq_shared_bottleneck/norm/mul;context_transformer_0/kq_shared_bottleneck/norm/add;context_transformer_0/attention/key/einsum/Einsum;context_transformer_0/attention/key/add;context_transformer_0/attention/value/einsum/Einsum;context_transformer_0/attention/key/add/ReadVariableOp/resource f4 [32]
00000000: dfce 523d 4de8 cebd 35d3 963d a982 9a3e
00000010: 742d bcbd f0cf 773d 162f e6bd 010c b43d
00000020: 5cf8 d3bc 5caf 083d 0529 5cbc 3fce 9bbc
00000030: 2206 373c d2de debd c97b 7f3e f78a bb3d
00000040: a636 daba 835f 8e3d a57f 1a3e e1ec c23c
00000050: c90d 4cbe 1695 63bc eebf e63d 520e b93c
00000060: accf 273c 99db 31bd 0f03 4a3e 5a41 a63d
00000070: 4186 d33c 2eb7 2a3c bbb5 7b3d b887 acbd
0.05146682 -0.101029016 0.07364503 0.3017781 -0.09188357 0.06050104 -0.1123945 0.08791352
-0.025875263 0.03337036 -0.013437514 -0.019019244 0.011170896 -0.10882343 0.24949564 0.09157365
-0.0016648367 0.06951811 0.15087755 0.023794593 -0.19927134 -0.013890525 0.112670764 0.022589836
0.010242384 -0.043422315 0.1972773 0.081179336 0.025820853 0.01041965 0.06145261 -0.08424324

context_transformer_0/kq_shared_bottleneck/norm/mul;context_transformer_0/kq_shared_bottleneck/norm/add;context_transformer_0/attention/key/einsum/Einsum;context_transformer_0/attention/key/add;context_transformer_0/attention/value/einsum/Einsum;context_transformer_0/attention/key/add/ReadVariableOp/resource1 f4 [32, 32]
00000000: 0124 e63e b61a d3bd bab4 4cbd a5a5 db3d
00000010: f0c2 8cbb 4049 17be 675f b13d dcfd bb3e
00000020: e290 df3c 3705 183e 62e2 d4bd 778e 9f3d
00000030: 02d0 91bd 90c8 c1bd 24a9 1e3e e15a 103d
00000040: bb2f 3abe 43c1 1d3e 7caa 803d e782 d2bd
00000050: 553e 5abd f524 953d dacf 22be 530f 8ebd
00000060: 1806 01be 8d3b 7d3d aef4 883d 111d 6abd
00000070: 9dbd 93bc ca13 d3bd cb2b f3bd 14d2 c4bd
00000080: ab27 18bf 9f5c f03d ae8b 853e 9380 84be
00000090: fc1a dbbd c754 273e aacd 6ebc e2b1 0b3f
000000a0: 906a eabb 1b51 a73d 3432 183e df1a 9b3e
000000b0: a62e b33d e0a5 5e3e fdf8 bdbe 25cf 853d
000000c0: 7556 f8bd 13e7 803d 6bab febd aa83 893e
000000d0: f73d 4fbe 6aa3 e43d 4ec5 05be 210b 1cbe
000000e0: 39c4 963e 59b7 443e 580e 61bc 7c97 9b3d
000000f0: f21f 503e 872f 0f3e ea5e 15be ab3c bc3d
00000100: 131c 343f 756a 08be 3244 76be d1e3 783e
00000110: 6ec0 d73d a240 01be a715 733d 6390 87be
00000120: 3f70 163d 40e7 5fbd f3d7 18be b63a 2ebe
00000130: 6a76 aebd 24cc 2cbe eee2 9a3e 66de 923c
00000140: 5ca9 8a3d 8a00 5cbd 6b28 063e d0ed 85be
00000150: cc66 f03d fd99 1abd f25e 943d 7dac 403d
00000160: 3223 7fbe 113c 82bd 9053 4d3d ac54 acbd
00000170: 3c54 00be c81f 12be 5ced 213d 7472 bbbd
00000180: 19da 8f3e deab 8dbe 2ec5 863e d569 3c3d
00000190: 6222 97be f8e3 babe abd8 a5bd dda3 50bf
000001a0: c97c 07be c798 643e c143 9ebe 39ed b4be
000001b0: 6d8d 223e 9dca 25be 45a6 b13e 9be8 dcbe
000001c0: 2523 72be ec18 d43c f0e3 47be 5aca 37be
000001d0: 7f4b 433d cbbf 083d 1dd2 e43d 0c1a f13e
000001e0: 1893 0c3d 3608 7cbe 4063 5ebd 5288 0c3e
000001f0: aa41 8cbe 0863 c93d 4838 643c af56 07be
00000200: f308 98be 26de 143e e957 1a3c fe8e cfbd
00000210: f633 3b3d 2abf 413e d6bd 2dbe ca05 9fbe
00000220: 3d21 c43c 71d0 82be 5a9e bc3d 7aa1 ebbd
00000230: 5ec2 1c3d bff7 ff3c 4c24 1dbe 25fe 3abc
00000240: e5e6 a53e 0af7 4abe 9b13 12bc f16a 283d
00000250: f700 0e3e 71e9 01be e668 803e f39d aa3d
00000260: 605c dc3d 7c89 11be 2058 94bd 982f 5b3d
00000270: 7b03 543d 8927 073e 6e4e 433e 681b 173e
00000280: a0cd de3e 0b4c 3bbe 7db3 b5be 1f3c 7a3e
00000290: 8214 213e b83c 9fbd 492f d53d c8e0 c2be
000002a0: 4896 243e f755 453c 2935 803b 2b04 19be
000002b0: c243 44be 5c63 a6be f233 843e a0fc 203e
000002c0: 9593 b43d d808 84bd 2d1b 313e 2d73 cfbd
000002d0: 0ab8 e53d 2652 1cbe 3acd a73c 861a 83bd
000002e0: 9460 b2be 7d7e efbc 84f2 a73d b732 2bbe
000002f0: 8ee0 b7bd 8f14 6bbe acc0 3d3d b48f 36bd
00000300: 400b 3bbe bd5f 313e 4758 773d 126e c1bd
00000310: 898d 5e3c 27e5 583e 5bbb 63bd 8510 18be
00000320: d54b 8abd 5d54 4fbe cfda 793b 3228 acbd
00000330: 9103 4e3d e4ed 8a3e de39 28be 147d 6cbc
00000340: f553 753e 6365 ebbd 8e02 2b3d 663f 573b
00000350: f7ae 5a3d d6e3 9d3c afc1 6e3e 45fd 9b3d
00000360: 925f 163e bb56 85bd 175b 94bd 537e 443d
00000370: 94f6 893c 3784 273e b6e0 113e a1ca d83d
00000380: b915 bc3e f92d 0fbe a0da 57bd a7ee a33d
00000390: 7da3 fdbc 26fe 31be effa bc3d 6a5f 7b3e
000003a0: 5ec4 1e3b 2c53 363e 2d33 97bd 126c b03d
000003b0: b793 a4bc cd00 f5bd eea2 133e 6141 763c
000003c0: bc26 8bbe fc2d 363e 6a67 993c 9453 cdbd
000003d0: 89a7 a7bd fb65 3c3d a35a 3cbe b151 adbd
000003e0: f6d2 20be 9480 c33d 21ab 873d 95c7 f4bc
000003f0: 70dd 66bd bde7 f2bd 7875 23be a5c0 e8bd
0.44949344 -0.10307829 -0.04997704 0.107249536 -0.0042956993 -0.14774036 0.08660775 0.36717117
0.027290765 0.1484574 -0.103947416 0.07790845 -0.071197525 -0.094620824 0.1549421 0.03524292
-0.1818227 0.15405755 0.06282517 -0.10278874 -0.0532821 0.072824396 -0.15899602 -0.069365166
-0.12599981 0.06182437 0.06687294 -0.057156626 -0.01803475 -0.10306509 -0.11873587 -0.09610382
-0.5943553 0.11736416 0.2608313 -0.25879344 -0.10698506 0.16340934 -0.014575401 0.545683
-0.0071538165 0.081697665 0.14862901 0.3029394 0.08749132 0.21742964 -0.37104025 0.0653365
-0.12125865 0.06294074 -0.12435039 0.26858264 -0.20238481 0.11163981 -0.13063547 -0.1523862
0.2944658 0.19210567 -0.01373633 0.07597253 0.20324686 0.13982974 -0.14586988 0.09191259
0.7035534 -0.1332186 -0.24049452 0.24305655 0.1053475 -0.12622312 0.05934682 -0.26477346
0.03672814 -0.054663897 -0.14926128 -0.17014584 -0.085186794 -0.16874748 0.3025126 0.017928313
0.06770584 -0.05371145 0.13101356 -0.26158 0.11738357 -0.03774451 0.07244672 0.047039498
-0.2491577 -0.06359113 0.05012852 -0.084145874 -0.12532133 -0.14269936 0.039533004 -0.091526896
0.28096083 -0.27670187 0.2632231 0.045999367 -0.2951842 -0.3650205 -0.08097967 -0.81500036
-0.13231196 0.22323905 -0.30911067 -0.35337237 0.15874262 -0.16190572 0.34697166 -0.43146214
-0.23646219 0.02589079 -0.19520545 -0.17948285 0.04767942 0.033386033 0.111728884 0.47090185
0.034319967 -0.24612507 -0.05429387 0.13723877 -0.27393848 0.09833342 0.013929434 -0.13216661
-0.29694328 0.14537868 0.0094203735 -0.101346955 0.04570385 0.1892058 -0.16966948 -0.31059104
0.02394163 -0.25549653 0.09209891 -0.115054086 0.0382713 0.031246064 -0.15345877 -0.011413132
0.3240272 -0.198208 -0.008915807 0.041117612 0.13867556 -0.12686707 0.2508003 0.08330908
0.10759807 -0.14212602 -0.07243371 0.053512186 0.05176113 0.13198675 0.19072887 0.14756548
0.43516254 -0.18290727 -0.354885 0.24436997 0.1573048 -0.07775253 0.104094096 -0.3806212
0.16072953 0.012044421 0.003912587 -0.14942996 -0.19166473 -0.3249768 0.2582088 0.15721369
0.088172115 -0.06446999 0.17295523 -0.1012939 0.11216743 -0.15265712 0.020483602 -0.06401543
-0.34839308 -0.029235119 0.08200553 -0.16718565 -0.08978377 -0.22957061 0.046326324 -0.04457064
-0.1826601 0.17321678 0.060386922 -0.09444822 0.013583549 0.21181165 -0.055598598 -0.14850052
-0.06752745 -0.20247026 0.0038124805 -0.08406104 0.05029637 0.2713462 -0.16428325 -0.014434118
0.23957808 -0.11493947 0.041750483 0.0032844185 0.053389516 0.01927368 0.23316072 0.07616667
0.14684895 -0.06510683 -0.072439365 0.047972035 0.01684121 0.1635903 0.14245877 0.105855234
0.36735323 -0.13982381 -0.05269873 0.08004504 -0.030961746 -0.17382106 0.09227549 0.24548116
0.002422593 0.17805165 -0.07382808 0.08614363 -0.020089967 -0.11963043 0.14417621 0.015030236
-0.2717799 0.17790979 0.01872607 -0.10025707 -0.08186252 0.045995694 -0.1839395 -0.08462847
-0.15705475 0.09546009 0.06624437 -0.029880324 -0.056363523 -0.11860607 -0.1596278 -0.11364869

context_transformer_0/kq_shared_bottleneck/norm/mul;context_transformer_0/kq_shared_bottleneck/norm/add;context_transformer_0/attention/query/einsum/Einsum;context_transformer_0/attention/query/add;context_transformer_0/attention/value/einsum/Einsum;context_transformer_0/attention/query/add/ReadVariableOp/resource;context_transformer_0/attention/Mul;context_transformer_0/attention/Mul/y f4 [32]
00000000: 45be ce3c 9239 db3d 55ec 9fbd 8dbe fa3c
00000010: b64b babd 9fe0 80bd fe33 55bd 265c 5f3d
00000020: b67f dfbd 6d5a 5e3e 58b3 ddbd 7891 243e
00000030: 01c2 163e a763 4a3e c866 aabd 33e7 e9bd
00000040: 7405 733d 5b1f 913c cbda 603e 6b03 b93d
00000050: 308b a43b 9dcf e23d d25a eb3b ee2a 7b3c
00000060: e5a8 433e 1534 2abd 5cfe acbd 2233 2c3e
00000070: 9cbb 573e 41e2 1b3e 9318 523e 98d6 2abe
0.025237212 0.1070434 -0.07808749 0.03060844 -0.09096472 -0.06292843 -0.052051537 0.05453124
-0.10913031 0.21714182 -0.10825223 0.16071117 0.14722444 0.19764577 -0.08320385 -0.11421051
0.059331372 0.017715147 0.21958463 0.09033855 0.0050214753 0.11074755 0.0071824575 0.015330059
0.19107397 -0.041553576 -0.08446953 0.1681638 0.21067661 0.15223028 0.20517187 -0.16683424

context_transformer_0/kq_shared_bottleneck/norm/mul;context_transformer_0/kq_shared_bottleneck/norm/add;context_transformer_0/attention/query/einsum/Einsum;context_transformer_0/attention/query/add;context_transformer_0/attention/value/einsum/Einsum;context_transformer_0/attention/query/add/ReadVariableOp/resource;context_transformer_0/attention/Mul;context_transformer_0/attention/Mul/y1 f4 [32, 32]
00000000: 42b8 c83d bd91 21bc 367c 843c 7158 94bb
00000010: bde1 84bd fc5d 1fbd 7d6f 873c e713 db3b
00000020: 51d0 bdbd 269d 223d 6179 29bd 40c6 3d3d
00000030: 75ca c33d e445 bb3c 3533 443d ca7c 58bd
00000040: 1ada e7bd 4aa5 3b3b 0359 83bd 2862 38bd
00000050: c742 acbb f261 793d 4bf2 9abd 29bc d73c
00000060: 19b3 b33b 7e70 3e3d 5498 2e3d 5e44 093d
00000070: 529d 523d fd9b 5e3b 7b33 50bd 135e e13c
00000080: 634a 33be a666 33bd 2010 6d3d 61e8 94bd
00000090: 0a2c 35be 8890 4cbd dfc8 6b3b f97d 5a3d
000000a0: e71d 2e3e 585d e23d b1b2 343d ad73 803d
000000b0: 825f f2bd c704 cbbd 5c2b 93bc c6bc aabc
000000c0: ee7e 3ebd 8985 0b3d f4a9 51bd 830f 9a3d
000000d0: bb04 193d 583e 6cbd 2553 febd bc03 9e3d
000000e0: 6f6b 9ebd 06ae ea3c 783f 683b 85f0 713d
000000f0: 6358 a43c c2bf 5bbc 867a cebc 05e7 323c
00000100: bea4 2b3e 2008 2b3d aef3 2ebd 7e58 573d
00000110: 80e5 b33d cf18 e63c 6796 c03c c9d5 0dbd
00000120: d0ce 19be 4001 96bd b27a 3ebd ca2e 22bd
00000130: 546d e83d 1ee9 0a3e 77cc 863b 54cd 11bc
00000140: 4e7c 45bc ee00 a3bc b7d8 1d3c e8cf 5ebd
00000150: 7825 10bd f350 9d3d a8ec 3d3d 9955 57bd
00000160: 34f6 5f3d 78bc 463c c608 863c 683c c2bc
00000170: 4017 183a 107c 283c 047d 583c f350 453b
00000180: a50e 173e a4e9 43bd 2d6b 29be 3964 843d
00000190: fb6d 8a3e 3f02 8cbc 27b2 debc 477b dc3d
000001a0: cbb4 08be 658c d2bc fedc 90bd 0b82 b53d
000001b0: faca a73d ca3b 34be 14ec 6b3d 9fd8 a13d
000001c0: badb 4f3d 924c 63bd 0938 363d 1141 7fbd
000001d0: 5674 b1bd 2e59 9bbb f870 a03d e8a3 33be
000001e0: 3277 babc 4d1f 1ebd 546b 453d ad40 98bd
000001f0: aeb5 dabd 2fb5 3cbd 60fd 87bd b484 e9bc
00000200: 5427 83bd 55d9 0f3d afdf 34bd 21d4 213d
00000210: 25ef 983d 170a 9d3d c964 80bb f55c 25bd
00000220: 318d c23d 2e42 87bd fb21 933d 2c06 15bd
00000230: e9b6 d6bd 8694 003d c37b a1bd d3a9 853d
00000240: 1e2b 023e e1e0 8cbc aa45 cc3d 1cd7 853d
00000250: 8aac 693b 925b 91bd c91f 9a3d 5e24 dcbc
00000260: b0e5 6a3b 3d6e b9bc 02dd 15bd 22d8 83bd
00000270: 6605 01bd ad45 f1bb 1265 433d 6533 08bd
00000280: cfef 8a3d 1749 5d3d 9255 0b3d d46a 823c
00000290: 71ab 253d c6ca 5b3d b7d7 c2bc 51c2 a2bd
000002a0: 8af2 1ebe 8fcb b0bd b95f fabc 43d6 4bbd
000002b0: 8c0a 073e 8991 c63d f1d9 f5bb d117 15bd
000002c0: 8dd3 3b3b 8360 55bd c1e0 11bc bd79 18bd
000002d0: 5587 a8ba 8430 a13d a3e0 c63d 370c 0d3d
000002e0: 5c91 c53d ff5f 88bd c018 a3bc f00d 1a3d
000002f0: 9b73 cf3c 70b9 783d c11f 273d a28d f03c
00000300: c41e 1abd 9e22 793c b616 20bd c845 bb3c
00000310: 44b2 633d 9cf5 333d 70fe ee3c 10f3 b7bc
00000320: 8c4d e93d 3fca 03bd 574e 2f3d 238a 6fbd
00000330: 25b1 e6bd d700 823d 3223 20bd 4f98 6a3d
00000340: f7bd 9e3d b0df e93b 855d cb3d 56f6 d63c
00000350: 210f 713c 938e 48bd 2cc3 133d 6c12 e6bc
00000360: 458a a9bc 7efe 843c a72f b8bc 5ef1 5bbd
00000370: 04c6 04bd 38a3 cfbc fb57 3e3d b191 4dbd
00000380: d039 aa3d 2178 e7bc 8c94 cf3c 2463 53bc
00000390: 8e9a 8cbd 4e84 4dbd f95c 013c da90 003d
000003a0: 6d06 f4bd a1f7 133d e545 71bd bc09 3f3d
000003b0: 9779 dd3d 0514 4bbc 4a04 8c3d 5514 80bd
000003c0: 53e4 cfbd a768 3f3c cf0b bfbd f798 31bd
000003d0: c92f bfb9 8fa2 613d cc4a 88bd a7b9 673c
000003e0: 3496 88ba 8b3f 803c d487 103d 91c4 243d
000003f0: 3108 073d 418b aab7 ed0e 23bd ca34 113d
0.098007694 -0.009861407 0.01617251 -0.0045271446 -0.06488369 -0.03890799 0.016532654 0.006685722
-0.09268249 0.03970065 -0.04137552 0.046331644 0.095601 0.022860475 0.047900397 -0.052853383
-0.113208964 0.0028632456 -0.06413462 -0.045015484 -0.005256984 0.060884424 -0.07565745 0.026334839
0.0054839966 0.046494 0.04262574 0.033512466 0.051419564 0.0033967488 -0.050830346 0.027510678
-0.17508845 -0.043799065 0.057876706 -0.07270885 -0.17692581 -0.049942523 0.0035977883 0.053342793
0.17003594 0.1105296 0.044115726 0.062720634 -0.11834623 -0.099130206 -0.017965011 -0.020841967
-0.04650777 0.034062896 -0.05118747 0.0752249 0.037358027 -0.057676643 -0.12418202 0.07715556
-0.07735335 0.028647434 0.003543822 0.059067268 0.020061677 -0.013412418 -0.025204908 0.010919337
0.16762063 0.041755795 -0.04271286 0.052574627 0.08784008 0.028088002 0.023509217 -0.03462771
-0.15020299 -0.07324457 -0.04650373 -0.039595403 0.11348978 0.1356549 0.0041137296 -0.008899052
-0.012053562 -0.019897904 0.009634188 -0.054397494 -0.035191983 0.076814555 0.04636827 -0.052571867
0.054678157 0.012129895 0.016361605 -0.023710445 0.00058018044 0.010283485 0.0132134 0.0030108064
0.1475168 -0.04783024 -0.1654479 0.064644285 0.27037033 -0.017090915 -0.027184559 0.10765701
-0.13350217 -0.025701711 -0.07073401 0.08862694 0.081930116 -0.17600933 0.05759819 0.07902645
0.050746657 -0.055492945 0.044487033 -0.06231791 -0.086647674 -0.0047408557 0.07834047 -0.17542994
-0.022761915 -0.03860407 0.04819806 -0.07434211 -0.10679184 -0.046071228 -0.06640124 -0.02850566
-0.064039856 0.035119373 -0.044158634 0.039508943 0.07467488 0.0766794 -0.0039182645 -0.040371854
0.094995864 -0.0660442 0.07184216 -0.03638284 -0.10484106 0.031391643 -0.07884934 0.06526532
0.1271176 -0.017197074 0.09974225 0.065351695 0.003565582 -0.07097544 0.07525594 -0.02687281
0.003584247 -0.022635574 -0.036587723 -0.064377084 -0.03149929 -0.0073630423 0.04770381 -0.03325214
0.06784021 0.054024782 0.034017153 0.01592008 0.040446702 0.053660177 -0.023784501 -0.07947219
-0.15522209 -0.08632576 -0.030563222 -0.049764883 0.13187617 0.096957274 -0.0075027873 -0.036399666
0.002866003 -0.052093994 -0.008903683 -0.037225474 -0.0012857715 0.07870582 0.09710815 0.034435477
0.09646866 -0.06658935 -0.019909263 0.037610948 0.02532368 0.060723722 0.040801767 0.02936441
-0.037626997 0.015206007 -0.03908416 0.022860423 0.05558993 0.043935403 0.02917406 -0.022454768
0.11391744 -0.0321753 0.04279932 -0.058481347 -0.112642564 0.063478164 -0.039096065 0.05727416
0.07751077 0.0071372613 0.09929947 0.026240509 0.01471308 -0.048964094 0.036074802 -0.028084956
-0.020695815 0.016234633 -0.02248366 -0.053696983 -0.032415405 -0.025346383 0.046470623 -0.05018777
0.08311808 -0.028255524 0.025339387 -0.012902055 -0.068654165 -0.050175004 0.007895702 0.03138814
-0.11915288 0.03612483 -0.058904547 0.046640143 0.10814207 -0.01239491 0.068367556 -0.06253878
-0.10150971 0.011682666 -0.09328424 -0.04335877 -0.00036465962 0.05508667 -0.06654891 0.014143384
-0.001042074 0.0156553 0.035285786 0.040226523 0.032966796 -2.0330424e-05 -0.039809156 0.035450734

context_transformer_0/ffn_layer_0/intermediate_dense/einsum/Einsum;context_transformer_0/ffn_layer_0/intermediate_dense/Relu;context_transformer_0/ffn_layer_0/intermediate_dense/add f4 [32]
00000000: 1c3e 7ebe d2c6 86be b179 28be 5f64 1bbe
00000010: a9c4 82be e276 bfbe 18b9 a3be 3b74 dcbe
00000020: f5ec 76be 525c 59be 41d2 edbe 99f6 e8bd
00000030: ec99 e33d 2cc8 b1be 1524 39be de0f 92be
00000040: 54bb 84be 7b75 12bd 1a10 213c e30e b7be
00000050: 1908 88be 1912 4ebe d482 97be 48d9 87be
00000060: b378 eebe c68e 6cbe 52e3 d9be 7b3a f4bc
00000070: 9580 5abe d0d4 e1be 6ca0 dfbd 21f6 d6be
-0.2482838 -0.26323563 -0.16452672 -0.15175007 -0.25540665 -0.37395388 -0.31977153 -0.43057427
-0.2411383 -0.21226624 -0.46449474 -0.1137516 0.11113343 -0.34723032 -0.1808017 -0.2852773
-0.2592417 -0.03575657 0.009830499 -0.35753545 -0.26568678 -0.20124091 -0.29592 -0.2653296
-0.4657646 -0.23101339 -0.42556244 -0.029813042 -0.21338113 -0.44107676 -0.1091927 -0.41984656

context_transformer_0/attention/norm/mul;context_transformer_0/attention/norm/add;context_transformer_0/ffn_layer_0/intermediate_dense/einsum/Einsum;context_transformer_0/ffn_layer_0/intermediate_dense/Relu;context_transformer_0/ffn_layer_0/intermediate_dense/add f4 [32, 32]
00000000: 5ac9 4cbe 05f7 2e3d a0a6 bd3c 3d36 b83d
00000010: 677b 3fbe 5a4d 8a3c 663c f93d 5379 563e
00000020: b15b 983d 639e f23d a73b 093d 3cec a03d
00000030: 1ea7 6f3e f6ed 95be 11a2 5cbe 1d1a a63d
00000040: 1564 f0bc 33f6 ab3e 22cf 2ebe 502a 053f
00000050: 1e9e 6a3c 0919 08be 0d2d ce3d 687f 2d3e
00000060: 444b afbe 4e61 243c 5fb1 3e3e edb7 c6bb
00000070: 24fe 293e 6563 9a3d cd04 51be 75e3 dbbd
00000080: e3c3 a33e fc45 353e 5093 2f3f 5449 c4be
00000090: ce91 e7bd c41f b73c 48fb e33d 9ffb 62bc
000000a0: 366f 37bd 75e6 c73d 9ca3 bf3e 4cb5 583c
000000b0: 6b43 c33d 16be c73d 39c6 803d 896f e5bd
000000c0: 911c 0d3c 20ee 43bd 784a d3be 12f2 873e
000000d0: a516 733e 60b6 a63b e26d a5be 9b7e 11bf
000000e0: 57bf b6bc 87bf 093e 851b 8d3b ec6e 16bd
000000f0: 1ae8 cd3d 4eaf 80bd 3fa3 23bd 5332 7ebe
00000100: 9e96 033f 17e0 2bbe a567 223e 5e2f f0bd
00000110: b7b3 2abd de11 36be 98d6 66bd bfcb 66bd
00000120: bb12 b43e 1da6 f0be a8f3 1cbe 9307 a0bc
00000130: 4c46 ab3e 9d01 a73d f9bd 21bd 87e3 49be
00000140: 0f5e dabc 82b4 303e e9cd dcbd bce1 44be
00000150: 4364 a0be d50f 953e 398d a1bd f104 91bd
00000160: 165a 8d3d 9f8c 973e f645 0ebe d691 8cbc
00000170: 74b6 dc3d 10e7 12be d4c5 423c 0aac 34be
00000180: 7b2e 70bc ffd1 353d d4ca beba 8bcc bebc
00000190: b251 7abe b6a2 34bd d4b6 14bd cf5a 1a3e
000001a0: c4af c73d a2e7 c3be 2941 763d eb91 9b3c
000001b0: 664a 02bd 7868 c9bc 46b1 993e 23da 12be
000001c0: e496 06be 3392 543e bef3 b13e f14e c5bd
000001d0: 63c3 38bd e188 093e 1635 d7bb 5db6 03be
000001e0: af1d e4be 9529 f53c 32e3 e1bd ef91 1fbe
000001f0: 1b68 043e f623 9c3c 7cc1 02be 3f71 dabc
00000200: f718 2f3d c4a8 423e d20f 833e 23bd b63b
00000210: 0867 4cbe acf3 a53c 30ef 183d 8600 3d3d
00000220: ea94 9c3d 9f07 64be d37b 993d 08ea 89bc
00000230: 1c04 b0bd 0b5a 17bc 98aa 953e 7d7c babb
00000240: 6822 35be d998 5a3e 605b f53d af33 ddbd
00000250: aed0 8e3d f705 443e 73b5 19bb 4b1f 64be
00000260: 2361 96be 2a00 5e3e 75f1 c0bd f072 92be
00000270: 6a79 333e f2e2 a0bd fb1c cfbc 67ce bb3d
00000280: f8c9 a0be c44f 063d 1531 223e 6a42 f83e
00000290: f5af 33bd d66b 383b 0129 b2bd eaa3 2dbe
000002a0: 3380 b53e 3c60 853e 9dc4 6b3d 2b78 443e
000002b0: dad0 0abd 9c5b 173b 854f 51be fe20 ffbd
000002c0: fd78 2bbe ac88 743e 2b39 94bd f429 7b3d
000002d0: 6aa0 a63e 1c9d 0ebe 391f 063e 071f 453e
000002e0: fc98 47bd 684f 8a3c b53c 603d 0123 3a3d
000002f0: 02a4 f73d ebc4 a93e 1b1b 4e3d a6c4 943d
00000300: c891 023f c041 5bbc 0715 003f 1dc5 d3bd
00000310: ef02 683d 2c73 29be db03 f83d 06b9 a03c
00000320: c87e 133d 8021 763d fa3f 9c3e 3784 4c3e
00000330: ef30 a93d 0f8d 133e c838 17bb 63ca a5be
00000340: 8cb3 533c 3225 363e ac7e 3fbe 4ff9 8f3e
00000350: bc18 b63d d517 e83e a64b e73d 5d13 babc
00000360: 6a79 7a3d 7b88 a33b 2454 98bd 6358 23be
00000370: 9bab d73d c64a 933e 4e8e 86bc 4e66 eebe
00000380: 7f7b bfbd 9b30 4b3e d617 6d3e d78e b9be
00000390: bb21 05be c6c0 3e3e d905 d03d 0615 7bbd
000003a0: 650e 1f3e 472e c8be 4b44 6bbe 5109 99be
000003b0: 1da8 17be 193d 203d af6d 92be 2614 f3bc
000003c0: c7de 0e3e 3283 b63d 649e 83be 028c 5a3d
000003d0: 507d 70be c0bf c33e 59eb 79be 2148 46be
000003e0: 773a 673c fca3 78bc 9ded 87be 7d8a 8dbd
000003f0: 36ab ab3d 98f1 d83c 0344 0cbd 1894 cbbe
-0.19998685 0.042716045 0.023150742 0.0899472 -0.18699418 0.016882587 0.12169723 0.20944719
0.07439364 0.11846616 0.033504155 0.07857558 0.23403594 -0.29283112 -0.21546198 0.081104495
-0.029344598 0.33586273 -0.17071202 0.5201769 0.014319925 -0.132908 0.100671865 0.16943133
-0.3423711 0.010032965 0.18622349 -0.006064406 0.16600853 0.07538489 -0.20411988 -0.10736743
0.31985387 0.17702478 0.68584156 -0.38337195 -0.11307107 0.022354014 0.111319125 -0.013853936
-0.044783793 0.09760753 0.37429512 0.013226818 0.09534343 0.09753053 0.06287808 -0.11202914
0.008612768 -0.047834516 -0.41267753 0.26551872 0.23739107 0.0050876588 -0.32310396 -0.5683381
-0.022308035 0.13451968 0.004306259 -0.036726877 0.100540355 -0.06283437 -0.039950605 -0.24823885
0.514017 -0.16784702 0.1585985 -0.117277846 -0.041675296 -0.17780253 -0.056356996 -0.05634665
0.3517054 -0.47001734 -0.15327322 -0.019534862 0.3345207 0.081546046 -0.039487813 -0.19715701
-0.026656179 0.17256358 -0.10781462 -0.19226736 -0.31326494 0.2911364 -0.07888264 -0.070810206
0.06901948 0.29599473 -0.13893875 -0.017159384 0.10776988 -0.14345956 0.011887986 -0.17643753
-0.014659519 0.04438972 -0.0014556297 -0.023290893 -0.24445227 -0.044100486 -0.03630717 0.15073703
0.097503215 -0.3826266 0.060120735 0.018990478 -0.031809233 -0.024585947 0.3001806 -0.14341025
-0.13143498 0.20758896 0.34756273 -0.096341975 -0.04510821 0.13431121 -0.0065676076 -0.12862535
-0.44553897 0.029927054 -0.11029662 -0.15583013 0.12930338 0.019060116 -0.12769121 -0.026665328
0.042748418 0.19009691 0.25598007 0.005576746 -0.19961178 0.020257793 0.037337482 0.046143077
0.076455906 -0.22268532 0.07494321 -0.016835228 -0.08594534 -0.0092377765 0.29231715 -0.0056911097
-0.17688906 0.21347369 0.11980319 -0.108008735 0.06973396 0.191429 -0.00234541 -0.22277562
-0.29370984 0.2167975 -0.09421054 -0.28603315 0.17526785 -0.078557864 -0.025282374 0.091702275
-0.3140409 0.032790914 0.15839036 0.4848817 -0.043868978 0.0028140447 -0.08699227 -0.1695706
0.3544937 0.26049984 0.057560552 0.19186465 -0.033890583 0.0023095375 -0.2044049 -0.12457465
-0.16745372 0.23880261 -0.072374664 0.061319306 0.3254426 -0.1392712 0.13097848 0.19250117
-0.04872988 0.016883567 0.054745395 0.04544354 0.12091829 0.3315805 0.05031882 0.0726407
0.51003695 -0.013382375 0.50032085 -0.10340331 0.056643423 -0.16547841 0.1211011 0.019619476
0.03600958 0.06009054 0.3051756 0.19972311 0.082612865 0.14409278 -0.0023074616 -0.3238097
0.012921225 0.17787626 -0.18700665 0.28119895 0.088914365 0.45330682 0.11293726 -0.022714311
0.061150946 0.004990635 -0.074379236 -0.15951686 0.10530778 0.28767985 -0.016425278 -0.46562427
-0.09349727 0.1984276 0.23153624 -0.3624179 -0.13001148 0.18628225 0.10157365 -0.061299346
0.15532835 -0.39097807 -0.2297527 -0.2988992 -0.14810224 0.039120767 -0.28599307 -0.029672693
0.1395217 0.08911742 -0.2570678 0.053356178 -0.23485303 0.3823223 -0.24406184 -0.19363452
0.01411306 -0.015175816 -0.26548472 -0.0691118 0.08382265 0.026482388 -0.03424455 -0.39761424

context_transformer_0/ffn_layer_1/intermediate_dense/einsum/Einsum;context_transformer_0/ffn_layer_1/intermediate_dense/Relu;context_transformer_0/ffn_layer_1/intermediate_dense/add f4 [32]
00000000: d8e4 5b3d a1c4 70bd c994 cdbe 2131 69be
00000010: 1da0 6fbd 5431 eabe 44a1 49bc 36f7 93be
00000020: 7020 babe b156 5b3d 6573 63be 205e 62bd
00000030: 70ef dfbe 04f6 9dbd a6b7 04be 7982 11be
00000040: 939c cbbe 57a2 fabd 1f10 50be 4a87 61be
00000050: c17d bcbd 39d4 5abe f570 37bd 1c0a 5dbe
00000060: d420 1fbe e7c5 72be 80fe 48be ac6a f7bd
00000070: fd28 8b3c 31d0 53be 7830 9fbe 6c9a a4bd
0.05368504 -0.05878127 -0.40152577 -0.22772647 -0.058502305 -0.4574076 -0.012306515 -0.28899544
-0.36352873 0.053549472 -0.22211988 -0.055265546 -0.43737364 -0.077129394 -0.12960681 -0.14209928
-0.39767894 -0.12237995 -0.2031865 -0.22024265 -0.09203673 -0.21370019 -0.04478546 -0.21585888
-0.15539867 -0.23708306 -0.19628334 -0.12080893 0.016987318 -0.20684887 -0.31091666 -0.08037266

context_transformer_0/ffn_layer_0/norm/mul;context_transformer_0/ffn_layer_0/norm/add;context_transformer_0/ffn_layer_1/intermediate_dense/einsum/Einsum;context_transformer_0/ffn_layer_1/intermediate_dense/Relu;context_transformer_0/ffn_layer_1/intermediate_dense/add f4 [32, 32]
00000000: f48c b03c 6066 f6bd d287 2a3e cf68 b9be
00000010: 8037 653d 45bf d6bd f1fc 393e 50a4 a43d
00000020: 6b80 cabd e4f8 6a3e c5c9 503e e0cd 0c3f
00000030: df04 fd3d 6c26 53be 4301 bc3e a35e f9bd
00000040: 13f4 13bd ce6d 6c3d 20ad ecbb 0f5a 803e
00000050: f34a 16be b31a 653f 8a3f 253d 9724 7cbd
00000060: fc1e d83d a314 d03d 8c27 42be 166b cebe
00000070: f376 273e ac17 fabd 2bc7 a3bd cb44 8abe
00000080: d5df 5e3e 9ee5 273e 2cf4 cf3d 5891 e5bb
00000090: 785b 38be 353d bc3c 0779 50bc 1f08 093e
000000a0: c30f 20be 184b 7c3e 7e71 c93d 7986 d7be
000000b0: aef6 1b3e bfe0 8d3d a22d c13c a9e6 09be
000000c0: 9805 cb3b b6c3 9a3d ec0d cabe 81d9 8d3e
000000d0: 8377 0b3e 04e7 1c3e f874 a83d 6d67 313d
000000e0: 7b3a a9be e511 603d b052 1dbe f48e 2bbe
000000f0: 0a17 5a3e 770e bc3b 9caf 34be 8e40 42be
00000100: 67fb 1fbe 0942 a23d a674 0b3e 8380 b93d
00000110: 5f58 ebbd bdb7 93be 8a11 b6bd 7eb7 f2bc
00000120: 2b4e 923d 41d4 9d3d e1b6 38be acf6 40bd
00000130: 4eca 8e3c 9207 1d3d 58c0 5cbe d1b1 7f3e
00000140: 3ef5 083d e5c7 573e ee70 66bd 4179 373d
00000150: f9ba f83d 770b bcbd 1ca6 27bd ba41 ddbd
00000160: e679 983d 6c9c 3abe 4ac4 5d3d a4db 063e
00000170: 3be3 8f3d 5f81 84be 2584 73bc 55f5 49be
00000180: 1487 a0bc b2a1 72ba cceb 193d 958f 043e
00000190: 40c5 833e 89ef a13e 706a 7c3e 3fb4 65be
000001a0: 3f9c 6bbd 9c2d b5be 30ee 4fbe 3810 2c3e
000001b0: 04e9 44bd e8d0 bdbe 2ca2 013e 9cac 663d
000001c0: 57fd ecbc 1939 1d3e cbb9 2a3e cb72 8d3d
000001d0: 5038 00be 0823 843e c02b f7bd df57 ec3d
000001e0: e9be 99be b85b 073e 7869 683e 76a0 61be
000001f0: 87a3 9ebd 4468 283e f413 183e d44a 15be
00000200: 9598 f13d 8265 c63e f754 0e3e 26c4 6c3d
00000210: a98c 1f3d 4d0f fc3d feb3 e2bb 61cf b43d
00000220: 652b 32be 85d1 8b3e 07a5 773e 429d a93d
00000230: 507e fb3d c0de 1dbe 2362 7c3b b7ac 803d
00000240: 436e ccbb f2f6 513d 7f88 00bf 906b 203e
00000250: e261 083e b65f 303e 1a27 d1bc 7cf3 60be
00000260: f403 5fbe 15a8 8a3d 469f e43d 5aae c3be
00000270: 46c3 653e dd57 f13a ae7d fdbd 2683 04bc
00000280: d81f 123d a17f cbbd 5a55 27be da4f 83be
00000290: 91b6 173d 5ec4 6bbd 6d35 1fbd c5e1 633d
000002a0: 6d04 1abe 67d6 ff3d 60e3 3d3e 122a 613c
000002b0: f0ed 85bc 5e36 82be 5b8a 05be d52f 643c
000002c0: 380f 4fbe a448 673e 218f bb3d a3d2 653e
000002d0: 5d81 663d 9275 2b3e 466c cbbc dc00 cfbd
000002e0: 6605 233e c8e1 6dbd f468 5a38 0932 c5bc
000002f0: 7fbd 7a3d cc7d afbe 9f66 f3bc 1d69 2b3e
00000300: 754a 7a3b dcb9 d6bd 611a 543e 895b 193d
00000310: 0331 00be ea5e bcbd b9a8 083e da26 3cbe
00000320: 5312 8ebe ddbe 583d 7bdc 1c3e cf24 e23d
00000330: 7d27 c6bd 8e21 263d 0806 d53d e3f6 de3d
00000340: c6d8 073e 0101 9fbc a574 59be d3a2 923e
00000350: 09fb 32be 3d40 143e e511 5abe 1f10 2abf
00000360: 634d 10be 10cb ca3e 7941 003e ec37 38be
00000370: 2e1a 063e df8e 00be 3422 493d 00d0 00bd
00000380: b090 95bd ad84 353e aa71 fe3c 04e4 cdbd
00000390: dc97 9ebe 0615 8fbd 8027 493e 6dc4 b93d
000003a0: 43b0 eabd c228 263d 0982 3c3e ca41 ce3d
000003b0: e0a2 533d 5c8e 50be b22d 76be 4420 d83d
000003c0: 7a7e 1fbe d4a9 843e 130b 07be 4a3d 623e
000003d0: 11cd 2dbd ef86 ddbc a8eb 97bd 421f 14be
000003e0: 5911 ffbd 1564 fcbc afca 133e 7c1e 61bc
000003f0: 4e74 6c3e d3b9 39be 9918 c7bd f9d9 3d3d
0.021551587 -0.12031245 0.16653374 -0.36212775 0.055961132 -0.104857005 0.18162896 0.080391526
-0.09887775 0.22946507 0.20389469 0.5500164 0.12354445 -0.20620126 0.36719713 -0.12176254
-0.03612144 0.057721905 -0.0072227865 0.2506871 -0.14677028 0.89493865 0.0403438 -0.061558332
0.10552785 0.10160186 -0.18960398 -0.40316075 0.1635397 -0.12211546 -0.07996973 -0.2700561
0.21765073 0.16396186 0.10153994 -0.0070058517 -0.18003643 0.022978405 -0.012724168 0.13382004
-0.15631013 0.24638021 0.098361 -0.42094782 0.1523082 0.069276325 0.02358133 -0.13466896
0.006195735 0.0755686 -0.39463747 0.27705005 0.13619809 0.153225 0.08225435 0.043311525
-0.3305243 0.054704566 -0.15363574 -0.16753751 0.21297851 0.005739029 -0.17645115 -0.18969938
-0.15623246 0.079227515 0.13618717 0.09057715 -0.11491465 -0.2885112 -0.08890064 -0.029628512
0.071438156 0.077065 -0.18038513 -0.047110245 0.01743045 0.038337298 -0.21557748 0.24970175
0.033437006 0.21072347 -0.056260042 0.04479337 0.12145037 -0.09181874 -0.0409299 -0.10803552
0.07445125 -0.18223733 0.054142274 0.13169724 0.07025763 -0.25879952 -0.014863049 -0.19722493
-0.01959566 -0.0009255662 0.03757839 0.12945397 0.25736427 0.31628063 0.24649978 -0.2243204
-0.057522055 -0.3538636 -0.20305705 0.16803062 -0.048073784 -0.37073445 0.1265952 0.056316957
-0.028929396 0.15353812 0.16672437 0.06906661 -0.12521482 0.25807977 -0.120688915 0.115401976
-0.30028465 0.13218582 0.22696483 -0.22033867 -0.07746034 0.16446024 0.14851362 -0.14579326
0.11796681 0.3874932 0.13899599 0.05780425 0.038952503 0.12307606 -0.0069184294 0.08828617
-0.17399366 0.27308288 0.24184047 0.08281948 0.122799516 -0.15417004 0.0038510642 0.06282943
-0.00623873 0.051260896 -0.50208277 0.15666032 0.1331859 0.17224011 -0.02553134 -0.21967882
-0.21778852 0.0677034 0.111631915 -0.38218957 0.22437772 0.0018413026 -0.12377487 -0.008087909
0.0356749 -0.09936453 -0.16341153 -0.2564686 0.037039343 -0.057560317 -0.03886931 0.055635232
-0.15040751 0.12492066 0.18543768 0.0137429405 -0.016348809 -0.25432104 -0.1304106 0.01392742
-0.20220649 0.22586304 0.09158159 0.22443633 0.056275714 0.16744068 -0.024831902 -0.10107586
0.15920028 -0.05807665 5.2072995e-05 -0.02407171 0.061215874 -0.34275663 -0.02971202 0.16739316
0.0038191353 -0.104846686 0.20713188 0.03744081 -0.12518696 -0.09197791 0.13345613 -0.18374196
-0.27748355 0.052916396 0.15318482 0.11042177 -0.096755005 0.040559344 0.10401541 0.10886934
0.13266286 -0.019409658 -0.21235903 0.2863985 -0.17478575 0.1447763 -0.21295889 -0.6643085
-0.1409202 0.3960805 0.12524976 -0.17990083 0.13095924 -0.12554501 0.049104884 -0.031448364
-0.073029876 0.17726393 0.031060059 -0.10053256 -0.30975235 -0.06986432 0.19643974 0.09070668
-0.114594005 0.040566213 0.1840898 0.10071142 0.051669 -0.20366806 -0.24040869 0.10553029
-0.1557559 0.2591082 -0.13187818 0.22093692 -0.042431895 -0.02704188 -0.07417995 -0.14465049
-0.12454481 -0.030809442 0.14432786 -0.013740178 0.23091242 -0.18137293 -0.097214885 0.046350453

context_transformer_0/ffn_layer_2/intermediate_dense/einsum/Einsum;context_transformer_0/ffn_layer_2/intermediate_dense/Relu;context_transformer_0/ffn_layer_2/intermediate_dense/add f4 [32]
00000000: f675 8d3e 8db3 ffbd c654 83bd 29e0 78bc
00000010: e98a edbd 8ccf fc3d d00c 68be 8b8e 86be
00000020: bab1 023e 8772 a6bd 9e76 67be 5064 a03d
00000030: c0c7 02be 9cab 0b3e d9b8 fa3d 35a6 2cbe
00000040: fd19 b8be e2c8 a0bd e44d 823d c953 97be
00000050: 6d37 7bbe 84fc 75be ca1c b1be 2e23 493e
00000060: a370 4e3e bcde 27be 4aaf 8ebe 2f33 6f3e
00000070: 69cd 46be 53af 96be 77c3 e2be e6d5 603c
0.2762906 -0.124854185 -0.064126536 -0.015190163 -0.11598761 0.12344274 -0.22661138 -0.26280627
0.1276311 -0.08127313 -0.22603843 0.07831633 -0.12771511 0.13639683 0.12242288 -0.16860278
-0.35957327 -0.07850815 0.06362513 -0.2955611 -0.24532862 -0.24022108 -0.34592277 0.19642326
0.20160155 -0.1639356 -0.2786811 0.23359369 -0.19414295 -0.29430637 -0.44289753 0.013722872

context_transformer_0/ffn_layer_1/norm/mul;context_transformer_0/ffn_layer_1/norm/add;context_transformer_0/ffn_layer_2/intermediate_dense/einsum/Einsum;context_transformer_0/ffn_layer_2/intermediate_dense/Relu;context_transformer_0/ffn_layer_2/intermediate_dense/add f4 [32, 32]
00000000: 3f19 3c3d 2ae5 093d 2eed 513d b054 ff3c
00000010: 9c4a bbbe b4db fdbc 3311 72bd 32ac 003e
00000020: 30f0 7dbe f336 73be a5f2 a03d 3b99 9c3c
00000030: 6635 c4bc 3753 b5bd a66d 6a3e 77f8 79bc
00000040: 8dba 8abe b56b 2c3e 57b9 d0bc e171 f73c
00000050: c946 58bd b7d0 413d bb1b a83c 43b1 a73c
00000060: bb7a e5be a381 67be ecd3 c43d 3f71 05be
00000070: 15d9 863e 47b6 a6bd 00f7 48be 0e17 71bd
00000080: 0df9 473d 65d8 7d3e 0b6e d1bd e5ad 2b3e
00000090: cb35 5cbd 2efc 4f3e eebb a93e 4dd9 d8bd
000000a0: 549b 29be 0e76 073e 68fe 35be e22d 2cbe
000000b0: 66f3 d9bd 3b00 2b3e 5aa6 b73d ff5d 5b3d
000000c0: fd29 3e3d 2e5f 27bd 739c 113e e52a 0c3c
000000d0: 9fcc 953e 6e9e 82bc 9cfe 4fbe ca45 0d3b
000000e0: 3e9d 98be 2684 c13d f2fe 813d 3c6d 0cbe
000000f0: 2ad8 66bd e408 11be f3d2 ae3d c2f4 c3bd
00000100: e2dd 3dbe f882 65bb 4429 bf3e c605 963c
00000110: f21a 93be 35af 62bb 30d3 6f3e f300 42bc
00000120: aa3e e63e 5ffd f83c 7e15 31bd 728c 60be
00000130: 620c 35bc 67d9 6c3e 704d 34be e817 cbbd
00000140: bfd0 8b3c f365 34bb 86a6 d0be a6f4 013d
00000150: c996 9f3d 7dbb 0a3d 6650 923e 3ca1 0dbc
00000160: 478b a7bd 815e 903e a393 eb3d e1c0 173e
00000170: e0f1 133d 46ee 273e fcf5 82bd 5a77 50bd
00000180: e9c7 b0bc c77d d63d f652 ba3e f6ce 7dbd
00000190: 94dc bbbe 72da 2bbe 7152 a8bb 7aeb bb3d
000001a0: 78ac 9c3e bfde 71be 5d8f 3abc db38 203e
000001b0: ef9f 933e 8478 a5be d6fb 923c a132 3b3e
000001c0: 49d6 9cbe 6de0 a8bd 90ae 25be c47d 00be
000001d0: 21a7 12be 8bf9 743e c783 22be b075 e8bd
000001e0: 437e c33d da93 8d3d 5996 dc3d 4540 093e
000001f0: 7484 bcbd 70cc 0dbd 7cee 973d 1965 783e
00000200: 49f7 c7bd e3a1 ad3d b295 19be a639 b4bc
00000210: 7d2f b93d f269 aa3d 2637 22be 3a60 5b3e
00000220: 4916 92bd abd7 b93d cb0f 833d c659 da3e
00000230: d0a1 7c3e 011c 87be 0967 92bd b462 8d3d
00000240: 21b1 cbbd b639 c63e 7038 fa3c 4957 e83d
00000250: 70f7 69bd cab3 39be 9ba4 383e 6eb5 0b3e
00000260: a570 08be 6809 95be ac6f 763d 9ade 26be
00000270: fa73 523e 8ae1 b93c b3d0 1ebe afdb 36be
00000280: 09f1 35bc f93e 313e ac2a 153e a887 893d
00000290: 591b 85be b4ea 15be d1a6 72be 7f3e 373d
000002a0: c739 703e 0a4e 68bd 9cf6 50bd c406 813e
000002b0: 1d5c e43e 7efa c93d 67bc 20bb 3b78 3e3d
000002c0: fffd b73c 2cd9 b4ba 1786 2d3e 5c2c 9ebc
000002d0: d63f 123e a48b 45be 57a0 033e b00a c5bc
000002e0: d572 74bc fe12 cf3c b7c1 27bc 49e7 a33d
000002f0: 3e67 90bc b592 533e 38f2 e7bc ad56 04be
00000300: bc14 16be 2874 08be c9ae db3e 1c9f 093e
00000310: e3e7 87be 590e 9a3c 1a1a 8c3e 6429 4fbe
00000320: a328 d23d 80ea 09be dd21 88be 68ce c7bd
00000330: 8f22 1e3e a155 d93d 1251 81be 4b12 c23b
00000340: 300c 99bc faba f93d f498 d0bb ce47 eabd
00000350: 65f7 b53d 9cc9 d63d cd09 82be 80c0 d23d
00000360: d1bf aa3d eba3 183d c850 65be afc2 483e
00000370: bbc1 a63c 44d0 2c3b cc23 8b3d e8e1 88bd
00000380: 3349 563d f715 79be 4c1c 803d 59a0 e4bd
00000390: cd59 86bd 6f35 ccbd 88a4 493c 245d 1f3d
000003a0: 9b18 52bd 2fee 9d3d 0a3c 94bd 036b 5b3e
000003b0: a4d4 793e 913b c1bd 48f0 73be 71a0 543d
000003c0: 1583 303e 9d63 113f e69d 11be 7779 7f3e
000003d0: 2cd0 7cbe 3e64 5b3e 6113 8e3d f8ad 023e
000003e0: 0ec6 d6bd 2b42 583e b2c2 053d 9d02 96bc
000003f0: 668b ac3d 7628 f1bc 62eb bdbd a700 a1be
0.045922514 0.033665814 0.051251583 0.031168312 -0.3658036 -0.030988552 -0.059098434 0.12565687
-0.24798656 -0.2375143 0.07858781 0.019116035 -0.023951244 -0.088537626 0.2289339 -0.015256993
-0.27095452 0.16837962 -0.025479002 0.030205669 -0.05280188 0.047318187 0.020521035 0.020470267
-0.44820198 -0.22608046 0.096107334 -0.13031481 0.26337495 -0.081402354 -0.19625473 -0.058859877
0.048821498 0.24789579 -0.10226067 0.16765554 -0.05376224 0.20311043 0.3315119 -0.10588322
-0.16563159 0.13228628 -0.1777283 -0.16814378 -0.10642128 0.16699307 0.08967276 0.05355644
0.046426762 -0.040862255 0.14219837 0.008555149 0.29257676 -0.015944686 -0.2031197 0.002155649
-0.29807466 0.094490334 0.06347455 -0.13713545 -0.056358494 -0.14163548 0.08536329 -0.09568168
-0.18541673 -0.003502069 0.3733617 0.0183133 -0.28731495 -0.0034589295 0.23420405 -0.011841047
0.44969684 0.030394254 -0.043233387 -0.21928576 -0.011050316 0.23129807 -0.17607665 -0.09916669
0.017067311 -0.0027526587 -0.40752047 0.031727456 0.07792432 0.03387021 0.28576964 -0.008644398
-0.08180862 0.281971 0.11502769 0.14819671 0.03611934 0.16399488 -0.06394574 -0.050895073
-0.0215797 0.10473209 0.3639142 -0.06196495 -0.36691725 -0.16782549 -0.005136781 0.09175773
0.30600333 -0.23620127 -0.0113867195 0.15646689 0.28832957 -0.3231851 0.01794235 0.18281032
-0.30632237 -0.08245931 -0.16179872 -0.12547976 -0.14321567 0.23923318 -0.15870582 -0.11350572
0.09545567 0.06912966 0.10770864 0.13403423 -0.09204951 -0.034618795 0.07418534 0.24257316
-0.09763963 0.08478143 -0.1499851 -0.022000145 0.09042261 0.08320989 -0.1584135 0.21423426
-0.07133157 0.090743385 0.06399497 0.42646617 0.24671102 -0.26388553 -0.07148559 0.06903592
-0.09945894 0.38715905 0.03054449 0.11344773 -0.05712074 -0.1813499 0.18031542 0.13643429
-0.1332422 -0.2910874 0.060165092 -0.16295853 0.20552054 0.022690553 -0.155093 -0.1785724
-0.011104831 0.17309178 0.1456706 0.067153275 -0.25997427 -0.14640313 -0.23696448 0.044737335
0.2345954 -0.05671505 -0.051016435 0.25200474 0.44601527 0.09862231 -0.002452636 0.04650138
0.022459982 -0.0013797632 0.16945682 -0.019308262 0.14282164 -0.1929155 0.12854134 -0.024052948
-0.014919956 0.02527761 -0.010239056 0.080030985 -0.017627355 0.20661433 -0.028313741 -0.12923689
-0.14656347 -0.1332556 0.42906788 0.13439602 -0.26544103 0.01880567 0.27363664 -0.20230633
0.10261657 -0.13468361 -0.26588336 -0.09756166 0.1544287 0.106120355 -0.25257164 0.005922591
-0.01868257 0.12193866 -0.0063658897 -0.11439477 0.088850774 0.10487673 -0.25398102 0.10290623
0.08337367 0.0372657 -0.22394097 0.19605516 0.02035605 0.0026369253 0.06793937 -0.06683713
0.052315902 -0.24324785 0.06255397 -0.111633964 -0.06560097 -0.09971129 0.012307294 0.038907185
-0.051292997 0.077114455 -0.07238014 0.2142754 0.24397522 -0.094351895 -0.23822129 0.05191082
0.17237504 0.5679262 -0.1422039 0.24948679 -0.24688786 0.21424958 0.0693729 0.12761676
-0.10486995 0.21118991 0.03265638 -0.018311793 0.08425026 -0.029438239 -0.09273411 -0.3144581

context_transformer_0/ffn_layer_3/intermediate_dense/einsum/Einsum;context_transformer_0/ffn_layer_3/intermediate_dense/Relu;context_transformer_0/ffn_layer_3/intermediate_dense/add f4 [32]
00000000: ee76 bbbd b818 52bd 9357 33be 0f5b c7be
00000010: 0a17 a9be bab9 eabe aa06 60be b24b e5bc
00000020: 301b 2cbe 7cb4 57be 1ff5 bebe d4a2 c4be
00000030: cd4f eabd a0d9 39be 48da 88be 3025 abbe
00000040: d7da 14be f4d7 1abf 8f31 92be cd53 d5bd
00000050: 51cc 66be 8f98 0bbd 64bf 88be ea41 7abe
00000060: bd7f 11bf ce2e cdbd b7a2 0abe 23fb 25be
00000070: cee2 b7be 6972 d1be 7149 55be 1c26 9bbd
-0.091535434 -0.051293105 -0.17513876 -0.3893666 -0.3302539 -0.45844823 -0.21877542 -0.027990196
-0.16807246 -0.21064943 -0.37296388 -0.38405478 -0.11441002 -0.18149424 -0.26729035 -0.3342681
-0.14536606 -0.6048577 -0.28553435 -0.10416374 -0.22538878 -0.034081038 -0.2670852 -0.24439207
-0.5683554 -0.10018693 -0.13538633 -0.16209082 -0.35915226 -0.409076 -0.20828797 -0.07575628
