code/flutterTest/test/.dart_tool/chrome-device/Default/optimization_guide_prediction_model_downloads/58057234-1f49-40fe-abce-8e6a2afb4fa6/model.tflite (tflite, 410364 bytes, 166 tensors)

context_transformer_0/bottleneck_input/norm/add f4 [32]
00000000: f011 533e 05ec 1a3b 9ae2 4f3d f754 313e
00000010: 0d66 043c 3afd dd3d 85d8 fbbb 5e6b f3bc
00000020: 6cd3 edbd d6aa 4d3a 9555 0bbe f829 79bc
00000030: 3e64 8abb 8568 51bd c4a1 9cbd 4ee2 3d3e
00000040: c098 fc3d 72cb b63d 2a90 123e 79a9 bd3d
00000050: 6226 aebc f8a8 de3d fbf3 8fbc 024d f1bd
00000060: 804e 75bb adbb 1bbb 7a4f 2a3d 4e2a 843d
00000070: 70d4 3bbd b523 b8bd 1459 e33c 8410 4f3d
0.20612311 0.0023639214 0.050753213 0.17317568 0.008080971 0.10839315 -0.0076857232 -0.029714283
-0.11612591 0.0007845586 -0.13606866 -0.01520776 -0.0042233756 -0.05112507 -0.07648042 0.1854336
0.12333822 0.08925523 0.14312807 0.0926084 -0.021258537 0.10872072 -0.017572394 -0.11782266
-0.0037430823 -0.0023762987 0.0415797 0.064533815 -0.045856893 -0.089911856 0.027752437 0.05055286

context_transformer_1/bottleneck_input/norm/add f4 [32]
00000000: 9d77 27bc 9220 1ebd a384 8fbd a136 753d
00000010: b0ff 8fbd 89ad 22be 1094 ad3d e469 d53c
00000020: e044 953d 9f67 b43d 4ebf b03d 7e71 513e
00000030: 2ee5 7ebd 47a2 91bd e3b7 a33c a6eb c03d
00000040: 28c8 433d 4ea2 7f3e 20b1 51bd 5c3e 763d
00000050: 8a91 183e 1c62 733d 1c92 5f3e 7b7c c6bc
00000060: 585b f8bc b5e6 363e fe27 e9bd ec61 593c
00000070: e228 ee3c a055 223e 988e 443d 705e f3bb
-0.010221389 -0.03860528 -0.0700772 0.05986655 -0.070311904 -0.15886511 0.08475506 0.02605147
0.072885275 0.08808827 0.086302385 0.2045345 -0.06223028 -0.0711103 0.019985145 0.09419946
0.047798306 0.24964258 -0.05119431 0.060118064 0.14899269 0.059419736 0.2183308 -0.024229279
-0.030316994 0.17861445 -0.11384581 0.013267975 0.029072229 0.15852976 0.04798755 -0.0074270293

mention_transformer_0/bottleneck_input/norm/add f4 [32]
00000000: e9b1 c1bd e638 893d 41a3 fabd 564b 243e
00000010: c24c ac3d 95c0 18be 740c 9d3d 1481 3bbe
00000020: b6c8 083e 308a 89bd a58d 35be adae 9e3e
00000030: b986 c4bb 1235 72be b6bc 3e3e 3825 a83d
00000040: 0be5 5abe 028a a1bd 7e5c 7fbe 44a9 a3bc
00000050: 0ada 31bd 245b 9dbe 0c27 29be cea9 563e
00000060: b84e fc3d 6210 5b3e 8355 673d 7ced f8bd
00000070: 16df 53be 5bd3 1a3e 7821 0bbe 4c53 7a3e
-0.09457762 0.06700306 -0.122381695 0.16044363 0.08413078 -0.14917214 0.07668391 -0.18310958
0.13357815 -0.0671581 -0.17729814 0.30992642 -0.0059975055 -0.23653057 0.18626675 0.08210224
-0.21376435 -0.07887651 -0.24937627 -0.019978173 -0.04342083 -0.30733597 -0.16518801 0.20963213
0.12319702 0.21392968 0.056478035 -0.121546715 -0.2069057 0.15119688 -0.13586986 0.24445838

mention_transformer_1/bottleneck_input/norm/add f4 [32]
00000000: 4650 1f3d 1320 01bd 9edf b73d fc9f 453d
00000010: 7a08 53be 4050 21bb 9198 b3bb ece7 40bd
00000020: db14 333e 66be 773e f03f 62bd d505 15be
00000030: da70 b0bc ec51 033d 8522 9abe d6c4 90bc
00000040: 663e 623e 2068 373e 5ed3 86be 6456 bebc
00000050: a71a fa3d d033 edbb dc2a 383e 7101 f03d
00000060: 5fa1 f4bd b37d f43d 70cb 23be b2c9 2bbe
00000070: 425a 0f3d 065d 43bd 6dd3 90bd f8ae 24be
0.038894914 -0.03152473 0.089781985 0.048248276 -0.20608702 -0.0024614483 -0.005480834 -0.047096178
0.17488424 0.24193725 -0.055236757 -0.14553006 -0.021538187 0.03206055 -0.3010446 -0.017671984
0.22094116 0.17910814 -0.26333135 -0.023234554 0.12212115 -0.0072388425 0.179851 0.11719025
-0.119448416 0.11938038 -0.15995574 -0.1677616 0.034998186 -0.047696136 -0.07071576 -0.1608237

context_transformer_0/attention/value/add;context_transformer_0/attention/value/einsum/Einsum;context_transformer_0/attention/value/add/ReadVariableOp/resource f4 [32]
00000000: aa3e 54bd 68c2 8d3c 4e2c adbd 06a6 523d
00000010: d3a7 803d 6d74 3d3c c350 a2bd d351 bdbd
00000020: 0129 86bd d61a 58bd 029e 903c 083b 843d
00000030: 8c11 29bd b88b 8fbd da15 36bd 9a7a 653d
00000040: 7881 b9bd 867e 82bb 0033 463d c6a2 603d
00000050: 7dd5 a1bd 8e2c a03d 2d18 ac3d ddcf 5ebd
00000060: 5e4c d6ba f190 763d d9c1 f7bc ef1a d1bc
00000070: b93c 80bd 4fe1 333c 4cdc 8cbd 5277 7e3d
-0.051817574 0.017304614 -0.08455716 0.051427864 0.0628201 0.011563403 -0.0792556 -0.09244122
-0.065507896 -0.052759968 0.017653469 0.06456572 -0.0412765 -0.07009071 -0.044454433 0.056025125
-0.09057897 -0.003982368 0.04838848 0.054842733 -0.07902048 0.07820998 0.08403049 -0.054397453
-0.0016349663 0.06019682 -0.030243801 -0.025525538 -0.06261582 0.010979011 -0.06877956 0.06212551

context_transformer_0/bottleneck_input/norm/mul f4 [32, 32]
00000000: acd8 c3be d63f f3be 36a9 c7be fa88 ccbd
00000010: 75b0 2dbd 873b de3d 4fd0 8c3c b3cd 193e
00000020: 8a49 f0bd ff34 ce3d 5e86 90b9 bbb9 373c
00000030: 1263 f83d 77c9 4ebe 0b8b 2f3d 244e ee3e
00000040: 9aa2 92bd b76d 23be 2677 013c 8fe4 b8bd
00000050: e3d8 93bd 3d50 303e 110b 6c3d 2d5d 533e
00000060: ffbf b4be e588 39bd 1dc0 18be d094 62bc
00000070: 9e86 9c3d 77da d13d 954a d43c ce28 9f3e
00000080: 8463 a5bd 4ae5 37bd e353 babc 76a4 803d
00000090: 6f99 4bbd a784 b1bd df6d a03d 6589 cdbd
000000a0: 0905 e23d 5d66 b13d 6966 30bd dd01 003c
000000b0: d672 80bc 16a7 93bd 493f 7bbd de7e 7fbd
000000c0: 62b5 cb3b a554 153c a7b4 9a3d 77a0 8dbb
000000d0: c38d 823d fd8c f3bc 5e68 7bbd a6e3 8ebc
000000e0: baff 5b3d b61a 353c 29a4 f53d 32ad 8bbd
000000f0: 8225 07be 0ed1 3e3d 27e7 79bc 17da 153a
00000100: 00ba 943d b690 58be daa4 0b3d ef87 f13e
00000110: 124a 513e d9fe db3d 3c1b dfbd 9f85 c23c
00000120: b5cd 0bba 5c3f 4ebe 6b41 1e3f ed89 d3be
00000130: 79b6 abbe 09e6 4bbe 34a9 553e a366 1abe
00000140: 80b1 8d3e 7a71 833e 6aef 023e 0dc9 3a3e
00000150: 194b 82be 7e65 fabc 0e5e 963e 2ebb 1e3d
00000160: 5601 9cbe 5839 de3e feff 34be 6616 39bb
00000170: 9c69 66be 6f97 093d 4c9a 8d3e 5fc6 833e
00000180: f241 26bf ba86 f7be 3c4f 80be d8ec d03d
00000190: 4f0f 693e a824 1c3f a077 2cbe 739b d4bd
000001a0: f8bb a3be b6bc 07bf 6cb9 353e a6c7 02bf
000001b0: 6cfb d1be bb07 26be 1dbb aa3e 9482 2d3f
000001c0: 9027 483e 5837 0fbc 731b b83e 055f 97be
000001d0: 595d a53e 8b63 a9be cba0 38bf 29ad 803e
000001e0: 2c25 4ebe e432 b33e 37c8 203e 1094 013e
000001f0: fb39 843e 1fc6 30be 063e a23e 4af7 babe
00000200: 71ad 61bc 522c 643e 3956 85be 74bb 4abe
00000210: 84a6 47be 4e98 d63e 8358 863d bc9c 83bd
00000220: 779a 3b3e a19c df3d 0ec9 13bf 2b57 d23e
00000230: 4f32 d5be 05bb 033e cf0c c13d 5f73 79bd
00000240: 29aa 5d3e 8e41 bdbd 2836 5abe 2243 e9be
00000250: 1b4b 11be 136c 7abe 5bad 91be 528c 43bd
00000260: 9cd6 9a3e 4b68 06bf 1eb1 d4bd b231 8b3e
00000270: ff3e 1fbf d549 6e3e 29ad 64be 7153 36be
00000280: d39f 2fbd 2dc6 d73d 5f46 2c3e 3c49 4bbe
00000290: c6cd 9bbe 8825 4e3e 1db5 723d e850 353d
000002a0: a613 c0bb b2ff aa3d e315 71bd 7d53 51be
000002b0: 62b9 02bd d5ec 8d3e c9da 373c 821f f5bd
000002c0: ca40 34be fff8 a83d b13f 5bbe 1273 e73d
000002d0: cda7 d13d 60f4 19be 6ad4 a8be 73c6 74be
000002e0: 0a53 4d3d 2ef6 173d 4020 663d fcff 02bd
000002f0: c9c2 9dbc 4fa1 f6bd e530 7ebd 645b 5a3e
00000300: 57bd 183d f2e4 e7bb f8ff 1ebd 0c39 cb3d
00000310: 8fbd 063e cd94 45bd f693 6ebe 2162 fc3d
00000320: 0fb5 2b3d 218d 3a3d c509 87bc 612b fbbc
00000330: 36e7 f43a 411a 42be 6444 6a3d 7a3d 48bd
00000340: dc88 42bd b15d 183d 8fa6 b0bd 71f8 e33b
00000350: bb66 0dbd cf85 a73d 49f6 c4bc 16b1 08bd
00000360: 6a09 28bd df8f 1a3d 45c5 763c 705d e43d
00000370: 374a 853c ec3c ac3d 5d1b aa3d 372a 5d3d
00000380: 71b1 683e 430a 793e a8ec 88be 15e3 5c3d
00000390: d596 d3bd 616b bfbd b506 9bbe ac54 213e
000003a0: 1aa7 8d3e 68fa 853d deb1 1fbf a43e d83d
000003b0: b3fb 893e 37f9 74bc c9bd b93e 01cf 073f
000003c0: 6ec2 3bbe e479 76be 4226 3cbe 8c55 453d
000003d0: aa11 34bd 02c8 abbd 91d6 343e f6d3 92be
000003e0: 65e6 b4bc 1b3c dc3d 2548 05be 913d 443e
000003f0: 0e92 283e ba08 763d 8fa3 33be bec4 74be
-0.38251245 -0.4750964 -0.38996285 -0.09987064 -0.04240461 0.10851198 0.017189173 0.15019874
-0.117327765 0.10068702 -0.00027565932 0.011213715 0.12128271 -0.2019404 0.04285721 0.46543992
-0.0715992 -0.15959822 0.007901942 -0.09027969 -0.07219102 0.17218108 0.05762774 0.20641012
-0.3530273 -0.04529657 -0.14917035 -0.013829425 0.07642864 0.10246747 0.02591447 0.3108582
-0.08075622 -0.0448964 -0.022745078 0.062813684 -0.049706873 -0.086678796 0.07833456 -0.100359716
0.11036117 0.08662102 -0.043066416 0.007812944 -0.015679758 -0.072096035 -0.06133965 -0.06237685
0.006216691 0.009114419 0.07553988 -0.0043221074 0.06374695 -0.029730314 -0.06137883 -0.017442536
0.053710677 0.011053732 0.11994202 -0.06820144 -0.13197902 0.04658609 -0.015252865 0.0005716397
0.07262039 -0.21148953 0.03409276 0.47174022 0.20438412 0.10741968 -0.108938664 0.023745356
-0.0005333082 -0.20141357 0.6181857 -0.41316167 -0.33537653 -0.1991197 0.20865327 -0.15078215
0.27674484 0.25672513 0.12786642 0.18240757 -0.2544792 -0.030565973 0.29368633 0.038752727
-0.3046977 0.43403125 -0.17675778 -0.002824211 -0.22501224 0.033591684 0.27656782 0.25737283
-0.64944375 -0.48344976 -0.2506045 0.10201424 0.22759746 0.60993433 -0.16842508 -0.10381212
-0.31979346 -0.53022325 0.17746514 -0.5108589 -0.41012132 -0.16213886 0.3334588 0.6777737
0.19546342 -0.008741222 0.35958442 -0.29564682 0.3229778 -0.33083758 -0.7212035 0.2513211
-0.20131367 0.34999764 0.15701376 0.12654138 0.25825486 -0.17263077 0.31687945 -0.36516792
-0.013774262 0.22282532 -0.26042345 -0.1979807 -0.19497114 0.41913074 0.06559851 -0.06426379
0.18320642 0.109185465 -0.5772866 0.4108213 -0.41639945 0.12864311 0.09426271 -0.060901042
0.21646942 -0.09241019 -0.21309721 -0.4555903 -0.14188807 -0.2445529 -0.28452572 -0.04774124
0.3024186 -0.5250289 -0.10385345 0.27186352 -0.622055 0.23270352 -0.2233168 -0.17805268
-0.04287703 0.10535846 0.1682372 -0.19852155 -0.3043043 0.20131505 0.059254754 0.04426661
-0.0058617173 0.08349551 -0.058858763 -0.20442005 -0.031915076 0.2771975 0.011221596 -0.119689
-0.1760284 0.08250617 -0.21411015 0.11301245 0.102370836 -0.15034628 -0.3297456 -0.23903827
0.05012802 0.03710001 0.0561831 -0.031982407 -0.01925792 -0.12042486 -0.06205835 0.21323925
0.037289944 -0.007076853 -0.03881833 0.0992299 0.13158248 -0.04823761 -0.2329863 0.12323404
0.041920718 0.045544747 -0.01648415 -0.030660333 0.0018684629 -0.18955328 0.05719413 -0.048886754
-0.0474938 0.037198726 -0.086255185 0.0069571068 -0.0345218 0.08179819 -0.02404322 -0.033372007
-0.041024603 0.037734862 0.015061681 0.11150634 0.01627074 0.084100574 0.083060004 0.053995337
0.22723939 0.24320321 -0.26743054 0.0539275 -0.10331503 -0.09346653 -0.30278555 0.15754956
0.2766655 0.06541902 -0.6238078 0.10558823 0.26949844 -0.014951996 0.36277607 0.5305024
-0.18335888 -0.24069935 -0.18373969 0.048177287 -0.04396216 -0.08387758 0.17659976 -0.28677338
-0.022082517 0.10753652 -0.13015802 0.1916411 0.16461965 0.060066916 -0.17542861 -0.23903176

context_transformer_0/kq_shared_bottleneck/norm/mul;context_transformer_0/kq_shared_bottleneck/norm/add;context_transformer_0/attention/key/einsum/Einsum;context_transformer_0/attention/key/add;context_transformer_0/attention/value/einsum/Einsum;context_transformer_0/attention/key/add/ReadVariableOp/resource f4 [32]
00000000: 2993 593e 5e60 8c3d 2721 c3bc 3a8f 3abe
00000010: 9e69 fd3c 529d 3e3e 65ec 023c 9666 fe3d
00000020: a338 65be dcb2 353e 1d8e 313e 473b 5fbe
00000030: 715b 78be 78dd 743e 26e7 95be 06a5 923e
00000040: 3065 86bd 400e cc3d 7f9e e5ba d56d 4dbe
00000050: 99cc 47be 32d1 ecbd 1b47 f1bd 3411 c8bd
00000060: 668e fdbd 28d0 0d3e f0d6 473c 3d21 91bd
00000070: 008a 39bb a066 023d 88be b3bc 36ae e73d
0.21247543 0.06854318 -0.02381952 -0.18218699 0.030934151 0.186147 0.007990931 0.124219105
-0.22384886 0.1774401 0.17339368 -0.21799956 -0.24253632 0.23912609 -0.29277915 0.28641528
-0.06562269 0.099636555 -0.0017518549 -0.20061429 -0.19511642 -0.11563338 -0.117811404 -0.09768906
-0.12380676 0.13848937 0.012197241 -0.07086418 -0.0028311014 0.031836152 -0.021941438 0.11312525

context_transformer_0/kq_shared_bottleneck/norm/mul;context_transformer_0/kq_shared_bottleneck/norm/add;context_transformer_0/attention/key/einsum/Einsum;context_transformer_0/attention/key/add;context_transformer_0/attention/value/einsum/Einsum;context_transformer_0/attention/key/add/ReadVariableOp/resource1 f4 [32, 32]
00000000: 5b72 d23d 7381 163e 9b59 07bd 0865 bb3d
00000010: 058d dc3d c840 fcbd 502a 623d 84e7 1a3e
00000020: a116 4f3e d43f 2cbe 179b 973d 12e6 933d
00000030: 7d5c 363e 3586 833c bcc2 cd3d 0003 81bd
00000040: 0a29 5bbe 5b02 05be 47e1 10be 60fb 84be
00000050: 4d2f 343e 5153 1ebe 54ff 373d 915d c7bc
00000060: 587d abbd c16f 59be a97e a53d 067e bfbd
00000070: b933 adbd 486b 2ebe c574 8f3d 07d2 ac3c
00000080: 5752 5a3d 05bf 763d 4327 033d ef1a b9bc
00000090: 72b9 633b d7d0 0cbe 0e56 e53d bee3 ee3d
000000a0: 6ad0 a83d 1344 64be d998 59bd 69f4 9ebc
000000b0: 66e2 8a3d 03bd 8e3d a0f5 56bc 17b3 81bd
000000c0: 04a2 0dbe 627a dcbb 2944 9abc cbdc 0dbe
000000d0: 63aa 1d3e 6719 21be 4896 71bc 563f 7fbc
000000e0: d275 763d bf2d 16be 2dc0 e63d 88f6 0cbe
000000f0: 3c87 9dbd e32b ccbd 085f 2f3c 9604 493d
00000100: 2578 7bbd 2637 923d 13da c9be fd83 97bd
00000110: 0726 26be f7b7 8f3e bd83 3f3e a88f c73d
00000120: 9dee 22bd 77a4 7e3d 8d41 a9bd ef6c 2cbe
00000130: 67a7 6abd 7e2a 8f3e 3e53 c8bd 9c46 76be
00000140: 1cc4 933c 3ae9 363e ab73 873b 658d 23bd
00000150: 3a3f 37bc f1cc a13e 9230 903e bfca 1c3e
00000160: fd0f 0b3e 1dd6 92bd a058 9dbe 39ef b53e
00000170: 3cb8 cf3e dc59 893d 20e9 97be ec32 f13d
00000180: daa0 bbbd 5bcc 23be 1a79 a03c d9c8 92bd
00000190: 1cfa a6bd 7da3 043e 5520 03bd f74b 2fbe
000001a0: ccce 1cbe a8a2 383e 89f8 87bd 7cab 97bd
000001b0: 9c12 1bbe 8f90 8abd 3ea6 fcbd 8ce7 c63d
000001c0: 1344 443e b7f1 f03d 101d cf3d 2101 813e
000001d0: 19cf 3abe ed06 073e 34d0 1cbc a146 2c3d
000001e0: 8353 093e 5501 4a3e 2307 fdbd 28f6 b33d
000001f0: c9b9 e03d 4c40 213e d551 43bd 58f5 4bbc
00000200: 8d2e 833d a257 4a3c 6b83 e63e 5116 ae3d
00000210: b27d 393e 16b1 afbe b9d2 83be 3633 a3bd
00000220: de8a d63b 3989 0fbe 226e 713d 4387 2a3e
00000230: 2adf cb3d 023e a2be d54c 143e f183 a33e
00000240: e953 fbbc 4575 0bbe cf03 323d 03f1 8fbd
00000250: 219b 1b3d 0711 c1be e17c e9be fdfa 54be
00000260: c861 b8bd 15fd 2f3d 174e b83e 1e60 e5be
00000270: 725e aebe 09f4 a3bd 2940 b13e 1927 cbbd
00000280: 44a3 df3d d5b4 263e 6f74 aebc 9e26 8e3d
00000290: 620b d23d e8cf f9bd 2ef4 3c3d f2af 243e
000002a0: 1bad 113e cfd5 32be bc21 913d 57c6 843d
000002b0: fce5 2e3e 4ea8 4cba 1bdc 2f3d 5a70 7dbd
000002c0: 06a3 42be 06b3 ebbd 548d b5bd 1eb9 54be
000002d0: 9267 0d3e 5560 e6bd 74c2 7c3c ddb5 31bc
000002e0: 3e06 e0bd 650a 51be 2c7c cf3d ff93 eebd
000002f0: 94fe e5bd 882c 27be 13b6 3e3d bd3c 133d
00000300: f7fe 103d 53b9 08bd a80f 39bd 9216 733d
00000310: b93d b63c 6944 cf3d 387f 0ebe 9371 38be
00000320: 36ce ff3c 5976 9b3e ce68 f23d 4670 813d
00000330: b722 70bc 3a3a 62bd 8ef8 dc3c 6d77 3a3d
00000340: 37a8 ab3d dd09 a4bd f6a6 0c3d 3aca 283e
00000350: 2b96 06be 95a9 6e3e 7c45 af3c 1e26 843d
00000360: 2805 1fbe ccef 7e3d c74f 17be d1a7 1b3e
00000370: 2f69 bc3d ddbc bd3d b622 df3c 955d 8ebd
00000380: 353b 983d 8ab0 e43d 44af 98bc 749e 9bbb
00000390: 3e76 8e3d 1bcd 42be 705c 823d 0346 1b3e
000003a0: 6ef8 f73d ccd1 53be f204 053d ebb5 9d3d
000003b0: 5626 f33d 3b33 913d 64d0 0d3d 1646 08bd
000003c0: e7d6 04be b03d c0bd 1afa b3bd 385a 4ebe
000003d0: 5bf8 0c3e 6ec5 30be 2c3e b23c bab9 09bc
000003e0: 41fe 77bd ed3f 0ebe e99e a03d c580 dabd
000003f0: b4d6 e9bd a596 e6bd 4453 cc3c 005b 793c
0.10275718 0.14697818 -0.03304444 0.091501296 0.10769085 -0.123170435 0.055216134 0.15127379
0.20223476 -0.16821223 0.07402628 0.07221617 0.17808719 0.016055206 0.10046908 -0.062994
-0.21402374 -0.1298918 -0.14148436 -0.25973034 0.17596169 -0.1546147 0.044921234 -0.024336608
-0.08373517 -0.21234037 0.08080799 -0.09350209 -0.08457131 -0.17033112 0.07004694 0.021096243
0.05330118 0.060240764 0.032019865 -0.02259585 0.0034747985 -0.13751541 0.11198054 0.11664532
0.08242877 -0.22291593 -0.053124283 -0.019403653 0.06781463 0.06969645 -0.013120085 -0.06332987
-0.13831335 -0.0067284564 -0.01883133 -0.13853757 0.15397029 -0.15732346 -0.0147453025 -0.015579065
0.060170956 -0.14665888 0.11267123 -0.13765919 -0.076918095 -0.09969308 0.01070381 0.04907664
-0.061393876 0.07139425 -0.3942419 -0.07398222 -0.16225444 0.28070042 0.18702598 0.09744197
-0.03977834 0.062168565 -0.08264456 -0.1683843 -0.057288554 0.27962106 -0.09781502 -0.24050373
0.018037848 0.17862406 0.0041336617 -0.039929766 -0.011184508 0.3160167 0.28162056 0.15311716
0.13580318 -0.07169745 -0.30731678 0.35534075 0.40570247 0.067065924 -0.29670048 0.11777291
-0.091615394 -0.15995924 0.019588996 -0.07167215 -0.08153173 0.12952991 -0.032013256 -0.17118822
-0.15313262 0.18030798 -0.06639201 -0.07405755 -0.15143818 -0.067658536 -0.12336396 0.09712133
0.19166593 0.117648534 0.10112965 0.25196174 -0.18243064 0.13186236 -0.009571124 0.042059544
0.13410763 0.1972707 -0.12354877 0.08787185 0.10972936 0.15747184 -0.047685463 -0.012448631
0.06405363 0.012349995 0.4502214 0.0850035 0.18114355 -0.34314793 -0.25746706 -0.07968752
0.006547316 -0.1401719 0.05894292 0.16653161 0.099546745 -0.31687933 0.14482434 0.319366
-0.03067966 -0.13618954 0.043460663 -0.07028391 0.03798974 -0.37708303 -0.45603088 -0.2079887
-0.09003025 0.042965967 0.35997078 -0.44799894 -0.3405643 -0.080055304 0.34619263 -0.09919567
0.10919812 0.1627992 -0.021295754 0.069409594 0.10256077 -0.12197858 0.046131305 0.16082743
0.14226191 -0.17464374 0.070865124 0.06483143 0.1707992 -0.0007807062 0.04293452 -0.061874725
-0.19007501 -0.115087554 -0.08864847 -0.20773742 0.1380904 -0.112488426 0.015427221 -0.010846582
-0.109386906 -0.20414121 0.10131106 -0.11649322 -0.112301975 -0.16325581 0.04656036 0.035946596
0.035399403 -0.033379864 -0.045180947 0.059347697 0.022246229 0.1012047 -0.13915718 -0.18012075
0.031226259 0.3036373 0.11836396 0.063202426 -0.014656714 -0.05523131 0.026973989 0.04552405
0.08381694 -0.08009694 0.034338914 0.16483393 -0.13143222 0.23306878 0.021395437 0.06452583
-0.1552931 0.062240407 -0.14776526 0.15200736 0.0919975 0.092645384 0.027238231 -0.06951443
0.07433168 0.11166485 -0.01863826 -0.0047491137 0.06956147 -0.19023554 0.06365287 0.15163426
0.12107931 -0.206855 0.03247542 0.07700714 0.118725464 0.070898496 0.034622565 -0.033269964
-0.12972604 -0.09386766 -0.087879375 -0.20151603 0.13766615 -0.17262813 0.021758161 -0.008406097
-0.06054521 -0.13891573 0.0784281 -0.10669092 -0.114179045 -0.11259202 0.024942048 0.01521945

context_transformer_0/kq_shared_bottleneck/norm/mul;context_transformer_0/kq_shared_bottleneck/norm/add;context_transformer_0/attention/query/einsum/Einsum;context_transformer_0/attention/query/add;context_transformer_0/attention/value/einsum/Einsum;context_transformer_0/attention/query/add/ReadVariableOp/resource;context_transformer_0/attention/Mul;context_transformer_0/attention/Mul/y f4 [32]
00000000: 146e 223d 04e7 f8bc 53d2 5a3d 9993 16bd
00000010: 270a 96bd 1725 073d d869 bd3d 03bb a93b
00000020: 8a9f d3bd 04bc c43d b935 d23d a901 fabd
00000030: d6f7 f5bd 44f4 033e b3ae 14be 73d1 133e
00000040: c1a9 603d 6d83 0d39 04c2 a13b df7a 0ebd
00000050: 8cb4 64bd ebb2 d9bc 4a3a a7bd f6c2 ff3c
00000060: 643b c5bd 20ac e23d 730d 48be 29e1 96bd
00000070: 027b fd3c 44bf 41be a31e 7cbe d69f f03d
0.03965576 -0.030383594 0.053423237 -0.036761854 -0.07326155 0.032994356 0.09248704 0.0051797642
-0.10333164 0.09606174 0.10264153 -0.12207348 -0.120101616 0.12886149 -0.14519767 0.14435367
0.05484939 0.00013495768 0.0049364585 -0.034785148 -0.055836245 -0.026574573 -0.08165415 0.031220894
-0.096304685 0.110679865 -0.1953638 -0.07367165 0.030942444 -0.18920618 -0.24621062 0.11749236

context_transformer_0/kq_shared_bottleneck/norm/mul;context_transformer_0/kq_shared_bottleneck/norm/add;context_transformer_0/attention/query/einsum/Einsum;context_transformer_0/attention/query/add;context_transformer_0/attention/value/einsum/Einsum;context_transformer_0/attention/query/add/ReadVariableOp/resource;context_transformer_0/attention/Mul;context_transformer_0/attention/Mul/y1 f4 [32, 32]
00000000: a8ab 833d e7f2 c13c e2b5 3d3d 932f 4b3d
00000010: 6c2d 913c e5b8 5abd a1a7 03be 103e 02be
00000020: 4e06 a8bc 89d2 023d 1be7 893d 534b 9a3c
00000030: 7db0 5dbb 159e bebd 7e77 c03c 48dd ba3d
00000040: 0d85 08bc c5f5 f53b ef68 1e3d 04d8 fa3c
00000050: de2f 0cbd a796 8cbd 2329 c3bd 9820 db38
00000060: 5223 36bd 77b1 763b 531e 1c3d f48b 64bd
00000070: 7e38 1ebc dacd 333d 9acd ce3d 20f1 7ebd
00000080: 8222 ae3c cc2d ebbc 0001 433d d3d2 d03b
00000090: 7f90 f3bb 836a 21bd e2a3 a6bd 313c fbbd
000000a0: 3ed1 dabc d2cb 053d 55ee 553d 8162 e53b
000000b0: 2b17 c2bc b90d 80bd 451e 773c 921f 893d
000000c0: 0262 213d c9b7 01bd cde7 093d b32d ed3c
000000d0: 8b37 65bc c4e9 f1bc 7e6b 71bd 995b 34bc
000000e0: 74fa 18bd c9cb 533d f76c 223d c409 e3bb
000000f0: c3de 02bd 4e8a d73c 0a61 8d3d db00 58bd
00000100: 82ba ae3c 2e7a e93b 2dab 0a3d 9fda 8a3c
00000110: e168 0bbd c256 333e a115 033e ce5a 983d
00000120: c12d 23bd 2610 c83d 40e4 3a3b 8566 82bc
00000130: 88e0 50bd 7b32 aa3d feb4 18bd b6ec 63bd
00000140: 2a9e e43c 4d68 52bb 6a45 4e3d 923b 4c3d
00000150: f68d 79bd 6329 f0bc 76b5 1c3e 0d0e a63c
00000160: a632 f1bc 50b2 903c b275 a83d 1e33 683d
00000170: cf4d 663d 38c5 3e3d 7f0f 5f3b 6188 efbc
00000180: dd69 90bd 0590 67bc f1e0 5cbd e426 51bd
00000190: 4bf0 98bc 5c51 633d dbf6 ed3d bafa f43d
000001a0: bf7d 223c 53cb cfbc 125e 6bbd 3559 9dbc
000001b0: cde7 5ebb ef1d d53d 4056 9abc ba72 b4bd
000001c0: 99aa 2f3c 5a2b fcbb 4be4 09bd 0dc8 14bd
000001d0: cd98 083d 4302 543d 7689 be3d bec5 013c
000001e0: 2d9b 3a3d 2da9 7cbb 13bf 38bd 31f9 2d3d
000001f0: b555 393c 5424 1bbd fdb2 ddbd ede8 843d
00000200: a965 cbbc 26cd 7abb b54d 75bc 1f98 9bbc
00000210: c34c db3c e3ae 6dbe 0497 11be 3345 c1bd
00000220: cc61 103d 9d52 02be 1a5a 87bc 761c 0b3c
00000230: f284 223d 1a4b d9bd e329 153d a786 603d
00000240: f9ee 54bb 5f9e 31bc e2fa 40bd f46d 4fbd
00000250: 575d 843d 0d61 d13c a626 23be a9d3 cfbc
00000260: fecc 023d 8f64 f3ba eec3 3bbd c827 8bbd
00000270: 5592 83bd 590e 3cbd b61f 943b 3224 693c
00000280: 3d75 413d 1bb4 843c a1e3 213d 7a9d 4b3d
00000290: f158 a33c 29d8 88bd 12e6 f1bd b1eb e2bd
000002a0: b45a 00bc d720 1e3d 1b75 853d b207 be3c
000002b0: e3f3 00bc 0db0 b5bd 73e7 443c 0154 c33d
000002c0: 0253 0c39 e246 793c c021 703c 0c32 4b3c
000002d0: 2a36 e8bc 86fb 3fbd 9dc3 b6bd 6433 4cbb
000002e0: 9b7d e7bc 0a99 af3b 8c16 073d c52e f2bc
000002f0: f797 30bc 95af 333d 7c19 b33d ee2a 8fbd
00000300: 8768 cf3a fad7 403d c657 90bd c7fd 253b
00000310: 4d38 3f3c c2b2 af3c 430d 883d 83c1 203e
00000320: 45dc 6b3d 770c 36bc 4f74 12bd e75f 053c
00000330: 1cf4 573d 47a1 0d3d 19f7 13bc e829 77bd
00000340: 2456 81bd 6406 8e3d 552d 13bd 5263 debc
00000350: d38d e53b e352 073c 8da9 3e3d 8c9c 403d
00000360: e645 073d 92ca c1bd e348 eebc 4cc0 08bd
00000370: f20f 4b3d db55 39bc 6bf8 4abd b98e 4a3d
00000380: 2750 5a3d c965 bcbb 5324 c83c a452 e23c
00000390: 6330 cf3c 6efc 62bd ba9b d6bd 5177 e4bd
000003a0: b625 28bc 333e 373d 655c 6e3d 13b0 6d3c
000003b0: 3e4d 93bc 145e aebd 8786 fa3c a4b1 923d
000003c0: e845 8f3c 3074 9fbc 0c35 9e3c 2620 463c
000003d0: 99dd 9cbc 9013 b7bc ff47 90bd 6d1c edba
000003e0: 585a 34bd 6118 f83c 8d6d 583c 01db 8abc
000003f0: 7a0c 24bd 1483 fc3c 629f bb3d d5be 74bd
0.06429225 0.023675395 0.046316035 0.049605917 0.017721854 -0.053398985 -0.12856914 -0.12718987
-0.020510819 0.031939063 0.06733533 0.018834746 -0.003382712 -0.093074955 0.023494478 0.09124237
-0.008332503 0.0075061047 0.03867429 0.030620582 -0.034225337 -0.06864672 -0.095293306 0.00010448805
-0.044467278 0.0037642398 0.038114857 -0.055797532 -0.0096570235 0.043897487 0.10097809 -0.062241673
0.021256689 -0.028708361 0.047608376 0.0063727885 -0.0074329968 -0.039408218 -0.08136727 -0.1226734
-0.026711103 0.03266508 0.052229244 0.007000268 -0.023692688 -0.062526174 0.0150829 0.06695475
0.03940011 -0.03166941 0.033668328 0.028952455 -0.013990293 -0.029530413 -0.058940403 -0.011008167
-0.037348226 0.051708017 0.0396547 -0.0069286544 -0.031950723 0.026311066 0.06903274 -0.05273519
0.021329168 0.0071251607 0.033854652 0.01694995 -0.034035567 0.17513564 0.1280122 0.074391946
-0.039838556 0.09768705 0.0028517395 -0.015918026 -0.05099538 0.0831041 -0.037281983 -0.055645667
0.02790745 -0.0032105625 0.050359167 0.0498615 -0.0609264 -0.02931661 0.15303597 0.020270372
-0.029443096 0.017663151 0.082255736 0.056689374 0.056226548 0.0465748 0.0034036336 -0.029239835
-0.07051442 -0.014133458 -0.05392546 -0.05106248 -0.018669268 0.055497512 0.116193496 0.11961885
0.0099176755 -0.025365507 -0.05746276 -0.019207576 -0.0034012676 0.104061 -0.018839955 -0.08810945
0.010721826 -0.0076955976 -0.033664983 -0.036323596 0.033348847 0.05175997 0.09303562 0.007920681
0.045558143 -0.0038552985 -0.045104098 0.042473976 0.011311938 -0.037876442 -0.10825155 0.064897396
-0.024828749 -0.003826925 -0.01497214 -0.018993435 0.026770001 -0.23211245 -0.14217764 -0.09437027
0.035249516 -0.12726827 -0.016522456 0.008490672 0.039677568 -0.106100276 0.0364169 0.054815914
-0.0032491072 -0.010840981 -0.04711426 -0.05064197 0.06463116 0.025558973 -0.15932712 -0.025369482
0.031933777 -0.0018569398 -0.04584115 -0.06794697 -0.06424395 -0.04591212 0.004520382 0.014229821
0.047230948 0.016199162 0.039523724 0.04971073 0.019939872 -0.06681854 -0.118114606 -0.11080111
-0.007834125 0.038605537 0.06516477 0.023197029 -0.007870647 -0.0887147 0.012018072 0.09537507
0.00013382363 0.015214654 0.014656484 0.012402069 -0.02834614 -0.04687073 -0.08924029 -0.003115856
-0.028258136 0.00535882 0.032980487 -0.029563317 -0.010778419 0.04386862 0.08745095 -0.0699061
0.0015823998 0.04708097 -0.070479915 0.0025328265 0.011671138 0.021447543 0.066431545 0.15698819
0.057583112 -0.01111137 -0.03575545 0.008140541 0.052723035 0.034577634 -0.009031081 -0.0603427
-0.06315258 0.06934813 -0.035931904 -0.027146969 0.007005432 0.008259508 0.046548415 0.047024295
0.033025645 -0.09462465 -0.02908749 -0.033386514 0.049575754 -0.011311973 -0.049553316 0.049452517
0.053299095 -0.0057494384 0.024431383 0.027627297 0.025291627 -0.055416517 -0.10478921 -0.1115557
-0.010262897 0.044737052 0.058193583 0.014507311 -0.017981168 -0.08514038 0.030581726 0.071627885
0.017489389 -0.019464582 0.019312404 0.012092626 -0.019148635 -0.022348195 -0.07044982 -0.0018090137
-0.04403147 0.030285062 0.013209713 -0.016950132 -0.04005096 0.030824222 0.09161259 -0.059752304

context_transformer_0/ffn_layer_0/intermediate_dense/einsum/Einsum;context_transformer_0/ffn_layer_0/intermediate_dense/Relu;context_transformer_0/ffn_layer_0/intermediate_dense/add f4 [32]
00000000: 8bb9 253c e167 e2bd 016d a1be 59e7 a7bd
00000010: cfcc eebe e751 d73d 6ed4 89be 9dd2 efbe
00000020: adc1 c0be cef3 e4be 89cf efbe dac7 fcbd
00000030: e3ea 00be 3f40 c2be 4526 9dbe 8de8 e8be
00000040: d656 a4bd 579a f2be 48c5 3dbe 7da0 bcbe
00000050: 95c1 17be 4583 02be 280c 94be cc7f b7be
00000060: a545 d5be 71ff 86be c4df f1be d94a 34be
00000070: 6500 bcbe fe1b 85be abde 98be ef2d aebd
0.010115038 -0.110549696 -0.31528476 -0.08198423 -0.46640632 0.105136685 -0.26919883 -0.46840373
-0.37647763 -0.44717258 -0.46838024 -0.12342806 -0.12589602 -0.3793964 -0.3069326 -0.45489922
-0.08024375 -0.47383377 -0.18532288 -0.36841193 -0.1481994 -0.12745388 -0.28915524 -0.3583969
-0.41654697 -0.2636676 -0.47241032 -0.17606677 -0.3671905 -0.2599792 -0.29857382 -0.08504855

context_transformer_0/attention/norm/mul;context_transformer_0/attention/norm/add;context_transformer_0/ffn_layer_0/intermediate_dense/einsum/Einsum;context_transformer_0/ffn_layer_0/intermediate_dense/Relu;context_transformer_0/ffn_layer_0/intermediate_dense/add f4 [32, 32]
00000000: 3d5d 7f3c c7d5 a13c b777 463e 665e 49bc
00000010: e196 45bd ad00 b5bc f090 57bd 7a4f 08bd
00000020: fb05 a03d c7b2 dbbe 2fb5 9f3e e19c 133c
00000030: 9e0d ac3d d404 14be b2c7 c7bd 501f 11bf
00000040: 4801 9abd d680 443e 5336 70bc 4cb7 923d
00000050: 4674 473e 20f8 a23d 73a7 96bc b491 3cbd
00000060: 0c0c dc3c 6d32 d53d 34e8 adbc 36ac a0be
00000070: b1ca 23be 5a67 1fbe 7711 acbd 555a b13d
00000080: 4ce4 a7bd 2693 c53d 588d b63c fdcb 9fbc
00000090: ff3c 96bd 1cc7 77bd d858 f93b fd11 28bd
000000a0: 06c8 1b3e 2489 1fbe 99f1 cb3e 7f04 253c
000000b0: 20a6 c73d 7113 9c3d f193 66bd 4ac9 11bf
000000c0: 0cae dcbd 61e4 483e a2aa 73bc a406 9fbd
000000d0: 6674 9f3d 9d38 45bd af44 64bc 5138 693d
000000e0: 0987 32bd c1f8 103e e5d6 b5bd 2629 9a3c
000000f0: 8f42 bebd a9b9 df3c 0d53 cbb6 1bc6 863d
00000100: 0b88 13bc 5aef 38be f035 093e 4478 f23d
00000110: f5d3 a7bd 9f44 f2bd 5de6 6c3e 2672 563e
00000120: b2c7 723e 3d74 a63e af6c f73d c757 993d
00000130: d8ad 5f3d 77af 863c f3ce 7f3e 6c4c acbe
00000140: e23a 043e d02d 0e3e 76d2 f0bd c074 07bd
00000150: 91fb 9d3e 0c80 1dbe b3cc f2bd 92b8 d33d
00000160: ed53 89be 2fc2 ddbd b086 2ebc 7bfd 4d3d
00000170: 1b89 3b3d f4f0 23bd eaf3 353e e72e 7ebe
00000180: 9420 253c 28b6 413e 6bee 2e3e 6cc3 c4bc
00000190: 2f7a 0e3d c916 b7bc b292 29be e781 f3bd
000001a0: b08b 013e b263 6abe 84ce b93e e882 7e3d
000001b0: a747 853e 695b 053c b49a 07be f50a 0dbf
000001c0: 9ab0 1bbd bb6f 283e cdb8 33bd 9a26 57be
000001d0: 1fbb fd3d 8893 d53b f9e4 c83c 1405 113d
000001e0: 103a 19be c4e4 613e f844 31bd fdd5 24bd
000001f0: b2ef efbd 23cb 0fbe 1898 023b 9655 313e
00000200: 4763 b5be e259 a5be 15cc 203e f265 d1be
00000210: e669 d23b 26b7 1bbb c7d5 393e aac7 773d
00000220: 19f4 743e b4ba 09bf 8960 513e c70b 10be
00000230: 419e 01be 3511 f3bd 77ee 66be b702 42be
00000240: fa2f 93be e4ec 073d 686e 5e3d b6c8 8fbd
00000250: 2279 c93d 626c 44be b3c9 163d 660f 3d3e
00000260: d8fc cbbd 2ea2 033d 5b94 0cbf d890 babd
00000270: 3716 99be 66fe d73e 82df 90be 9fa8 48be
00000280: 5ec6 f9bc d273 e6bd 87e0 2dbe 7a1d 18be
00000290: 6484 183e beed 8fbc 4872 8f3d 49da e93c
000002a0: da2c e0bd 256a d2bc 248d 963e 09b7 42bc
000002b0: fc21 f0bd e1f3 c5bd 2719 9d3d 235b 21bf
000002c0: 8386 a4bd c68d a3bc 5e9b bd3d a2de c33d
000002d0: b0d2 85be 902d 423e 0937 2ebe 8615 143d
000002e0: 18a9 4d3e f054 b8bd adda eb3c fcee 97bd
000002f0: af90 563d 69ca 403d 9f37 bdbb 4c75 f73d
00000300: 989d c5bd 365c 41bd f1ee abbe 1af9 85be
00000310: cc0f 053e 6ddf 8d3d a756 4bbe 1621 1d3e
00000320: 6fe5 8bbd 886c 963d bbc2 2b3d 3cc9 123f
00000330: 00ca 02be e4d8 70bd 847d 5e3e 1756 1a3d
00000340: 2c28 a0be c82d 63be 5396 1abd 8fcf fbbe
00000350: 5b87 91be aa16 d6be 159e b23d 3a30 b53b
00000360: 90e1 5b3e 63e4 32bd 3253 43be 87af e03d
00000370: f637 863e f76f 933e b3d0 1b3c 307e b8bc
00000380: e4bd b0be c70f 30be 335a e1bc 3e1f 5ebe
00000390: 44b1 563e ad5a 59be 4460 42be 4d44 9cbc
000003a0: 9545 7c3e 0ffa fd3d 87c9 b03d f541 47be
000003b0: 30c2 573d dd1d 023d ddf8 bd3e c49e 41be
000003c0: d787 61bd 15fc 73be 9ffe cfbe 09bb debe
000003d0: bd79 51bd 31a3 dabe a394 883e d46d a03e
000003e0: 95ea 9bbd 8fd9 e3bd 408a 013e 6e69 67be
000003f0: a80c 413d 3b5c eb3d be97 88be ce28 69be
0.015586195 0.019755257 0.19381605 -0.012290573 -0.048239592 -0.022095049 -0.052628458 -0.03327892
0.07813641 -0.42909834 0.3119292 0.009009571 0.08401035 -0.14454967 -0.09754886 -0.56688404
-0.07519776 0.19189772 -0.014661389 0.07163867 0.19477949 0.07957482 -0.018390393 -0.04603739
0.026861213 0.104100086 -0.021228887 -0.31381387 -0.1599529 -0.15566769 -0.08401769 0.086598076
-0.08197841 0.09647207 0.022284195 -0.019506449 -0.07335853 -0.06049262 0.007609468 -0.04103278
0.15213022 -0.15579659 0.39832762 0.010071873 0.09748483 0.07620896 -0.05629343 -0.5694777
-0.10775384 0.1961837 -0.014872225 -0.077649385 0.07785873 -0.048149694 -0.013932391 0.056938473
-0.04358581 0.14157392 -0.088788785 0.01881845 -0.09290039 0.02731021 -6.05954e-06 0.06580754
-0.009004603 -0.18060055 0.13399482 0.11839345 -0.081947245 -0.11829495 0.23134752 0.20941982
0.2370899 0.32510558 0.120812766 0.07487445 0.05460915 0.01644109 0.24981289 -0.33652055
0.12913087 0.13884664 -0.11758892 -0.033070326 0.30855992 -0.15380877 -0.118554495 0.10337938
-0.26821843 -0.10828053 -0.010652229 0.050290566 0.04578505 -0.040024713 0.17768827 -0.2482258
0.010078568 0.18917143 0.17083137 -0.024018966 0.034784492 -0.022349732 -0.16559866 -0.11890011
0.12650943 -0.22889593 0.3629037 0.06213656 0.2603123 0.00813947 -0.13242608 -0.55094844
-0.038010217 0.16448872 -0.04387741 -0.21010819 0.12389206 0.0065178312 0.024523245 0.035405234
-0.14963555 0.22059923 -0.043278664 -0.040243138 -0.1171564 -0.14042334 0.001992708 0.17317805
-0.35427305 -0.32295138 0.15702851 -0.4089809 0.0064213155 -0.0023760288 0.18147956 0.06049315
0.23921241 -0.5380051 0.20446981 -0.14066993 -0.12658025 -0.11868516 -0.22551905 -0.18946348
-0.2874754 0.0331849 0.05430451 -0.070207044 0.098375574 -0.1918197 0.03681345 0.18462905
-0.099603355 0.03213709 -0.5491387 -0.09109658 -0.2989976 0.42186278 -0.28295523 -0.19595574
-0.030490097 -0.1125256 -0.16980182 -0.14854994 0.14894253 -0.017569419 0.07004219 0.02854647
-0.10946055 -0.02568538 0.29404557 -0.011884459 -0.11725232 -0.09665657 0.07670813 -0.6302969
-0.080334686 -0.019965064 0.092581496 0.09563948 -0.26137304 0.18962693 -0.17013182 0.03615334
0.20084035 -0.090005755 0.028790796 -0.074186295 0.052384075 0.047068033 -0.005774453 0.120829195
-0.09649199 -0.04720708 -0.33580735 -0.26166612 0.12994307 0.06927381 -0.19857274 0.15344653
-0.0683087 0.073449194 0.041933756 0.5733831 -0.1277237 -0.058800593 0.21727568 0.037679758
-0.3128065 -0.22185433 -0.037741017 -0.49181792 -0.2842358 -0.41814166 0.08721558 0.0055294307
0.21472764 -0.043674838 -0.19074705 0.10970979 0.2621457 0.2879636 0.009510207 -0.022521108
-0.34519875 -0.17193519 -0.02750883 -0.21691605 0.20966059 -0.21225996 -0.18982035 -0.019075537
0.24635918 0.124012105 0.08632188 -0.19458754 0.052675426 0.03176676 0.3710393 -0.1890822
-0.055061188 -0.2382663 -0.40623948 -0.43502071 -0.05114149 -0.4270263 0.266759 0.31333792
-0.07613102 -0.111254804 0.12650394 -0.22598812 0.04713121 0.11492201 -0.2667827 -0.22769472

context_transformer_0/ffn_layer_1/intermediate_dense/einsum/Einsum;context_transformer_0/ffn_layer_1/intermediate_dense/Relu;context_transformer_0/ffn_layer_1/intermediate_dense/add f4 [32]
00000000: c8ad dd3b ec54 d6be 4410 af3e 6e2c 88be
00000010: e755 6abe 03a4 343e 8b82 a3bd 63e2 8dbc
00000020: 3570 0c3e 0d2f 8cbe ec62 97be 4ae5 293e
00000030: baa7 42be 2eab ec3d 9912 34bd 96e7 0abe
00000040: 455c 84bd 3cb2 b2bd ca69 a7be ff5c 8abe
00000050: 49d5 cb3b 0c3f 98be fa1d 053d da6e 5ebd
00000060: 99bf 69be 9119 4a3c 96c6 18be c05c 653c
00000070: da23 94bd 53b7 3d3e f80f 833e 4c83 03bf
0.006765101 -0.41861665 0.34192097 -0.26596397 -0.22884332 0.1764069 -0.079838835 -0.017319864
0.13714679 -0.27379647 -0.2956766 0.16591373 -0.19009295 0.115560874 -0.04396305 -0.13564906
-0.064629115 -0.08725402 -0.32697898 -0.27024075 0.006220494 -0.297356 0.03249929 -0.054304935
-0.22826995 0.012335197 -0.14919505 0.013999164 -0.07233401 0.18526964 0.2559812 -0.5137222

context_transformer_0/ffn_layer_0/norm/mul;context_transformer_0/ffn_layer_0/norm/add;context_transformer_0/ffn_layer_1/intermediate_dense/einsum/Einsum;context_transformer_0/ffn_layer_1/intermediate_dense/Relu;context_transformer_0/ffn_layer_1/intermediate_dense/add f4 [32, 32]
00000000: e6f5 30bd 3ccb ab3c 3558 5abd e59f 253e
00000010: b75d 03bd 837b 75be 88fe 17bc 23b5 7a3c
00000020: ec51 233d baae 223d d14d 413e 40fa 213e
00000030: aeb5 b5bc 744d 383e f8af 88bd d848 98be
00000040: 569c 46be aea8 083e 8f76 35be 9eb3 cebe
00000050: 38f7 26be 3545 903d 20a1 7dbd d85c 563d
00000060: 5bac 4e3d 910c bd3e 8998 ed3d 8ecf c7be
00000070: 1433 cdbd 5f8a 50bd 2a7a 0d3e c97e 3c3d
00000080: 4003 453c 30e8 d33d fca4 563e 90e8 9cbd
00000090: 680a 3fbe e1a9 38bc 5d06 e93d 50be f3bd
000000a0: 9a06 88ba 2cbd 4e3e ced4 113e f577 8bbd
000000b0: fced c13d bed7 5abd 46b3 1dbd e0ed eebd
000000c0: 2308 133d 3aac a7be d4bd b7bd 9039 00bd
000000d0: adc9 af3e 1a98 b1bd 3db9 fc3d 5645 30bd
000000e0: d657 37be b764 843d e2c4 2e3b 232e 98bd
000000f0: 4594 79be 85aa 813d a1e6 52be f13c d0bd
00000100: f14b 9bbd 7f1c cebd b2a6 34bc e197 9fbe
00000110: e6ae 0f3e 5174 1bbd fe5a 073d 6fcf bebd
00000120: 840d 46bc 9496 b7be 442b 123f d615 0f3e
00000130: c469 62bc 893a c03d aac6 7abd 5247 1bbf
00000140: dbb4 27bd b01b bdbd 90b6 ebbd a04a 89bd
00000150: 5267 0fbe 5971 da3d c7c1 9bbc daf5 a93d
00000160: 93a1 ed3c 5308 e33d 4de6 a1bd b9b4 67be
00000170: 6f79 08be d965 47bc 10d5 4abe 0250 773d
00000180: a003 063b 2ade 65bd 8e94 113d 7a5f 023c
00000190: 84c3 7dbe 715c 48be 6a29 903e e0ff 323d
000001a0: 86b2 f7bd 6b4c fcbd 71da 083e d09f ffbd
000001b0: d02e 92bd 9b14 d1bd c8db a33d cfa7 27be
000001c0: 011b 6abe cbb4 8a3e db7c bf3c 3c46 1ebe
000001d0: e41a b73d b9b3 9a3e 54b0 31be 9124 8abc
000001e0: 1500 163d 42fb 19be 0af5 623d e0cf 19be
000001f0: 8eec 25bc 5f20 5f3e 6af7 993e 86e6 413e
00000200: 8739 82bd 6ef4 c23d 8df5 a43d 57fb 9d3d
00000210: d471 d0bd 6ddc f2bd 133a c5bd 1b09 283e
00000220: 81a1 673e 84e5 abbd b016 563e c472 0b3d
00000230: 88d1 8d3c ce3b a13d f5c8 1a3c 694b d3be
00000240: 2361 d93d b974 6b3d 910f 9d3d b7c7 ef3c
00000250: f8f2 3c3e 9875 04bd da33 cebd 2249 00be
00000260: f8d2 a8bd d1ea 973d 18fe 113e 811a 06be
00000270: d192 3fbd a8d6 32bd 4008 c53d 6bbc 123d
00000280: 9276 bdbd f61f 843d 139c 44be 1def 87be
00000290: 04de 83bd 0bb7 1abd da73 d33e f93c 853c
000002a0: 6bb1 b2bd d786 423e c3c3 603e 175e 9d3a
000002b0: 32de 9cbd 419e 7d3b da0a ae3d b53c 2ebe
000002c0: fc10 5ebe 74ec bf3c 4e55 c5bc f855 f43c
000002d0: bf97 0cbe 0a63 393e 23a0 7abe 4b61 863d
000002e0: bff5 8c3d de8b 4ebe f709 3b3d 05e0 37bb
000002f0: fece 223c d8af eb3e 2d13 d33d beae 2fbd
00000300: cd32 c5bd 8d43 f03e 6863 01bd c32a 85be
00000310: bf41 d4bd 562c 0dbe 4e07 8a3d 6592 453d
00000320: 6bd2 9abb ef4d 083d bcd2 c73e 8013 7bbe
00000330: 3119 1f3c ad71 a1bd 1a8e d2bd 8279 22be
00000340: 15c3 d3be 875f 3fbd 38b2 03bd 93cb 613d
00000350: 6942 253e d95b 1bbd bba7 f93d 7984 01be
00000360: 7fcb 1f3e 5b71 57bd 0c25 83be a761 acbd
00000370: 6468 5bbd d1f1 9b3e c8d0 38bd d5ec bc3c
00000380: 3c05 c8bd 0ee0 1abe 3d87 423e 17b7 a73d
00000390: 2ef3 5d3d c4df 89be c89e 373e 710d e63d
000003a0: d864 6b3e 0fc5 03bb 73ec ca3e e700 3fbd
000003b0: 6523 03bd d679 88bd 216b d83d 1bcf ecbe
000003c0: 058f 03bd 3c90 403e ef25 e3bb 0d3a 3cbe
000003d0: 3015 943e bf6f 23be ed78 eebc a7aa d93c
000003e0: 3089 a6bd 68c3 273d 5565 08be 50c2 003e
000003f0: 1fd8 2fbe 4e0a 5b3e 4bb7 1ebe 9434 6fba
-0.043203257 0.020970933 -0.053306777 0.16174276 -0.032071795 -0.23972897 -0.009276994 0.015301975
0.03987305 0.039717413 0.18877341 0.15818119 -0.022181358 0.17998296 -0.066741884 -0.29743075
-0.19395575 0.13345596 -0.17721008 -0.40371412 -0.16305244 0.0704445 -0.06192124 0.052334636
0.05045734 0.3692365 0.116013594 -0.3902554 -0.10019508 -0.05091321 0.13816133 0.04601935
0.012024701 0.103470206 0.20961374 -0.07661545 -0.18656313 -0.011270971 0.11378167 -0.119015336
-0.0010377944 0.20189351 0.14241335 -0.06809989 0.0946922 -0.053428404 -0.038501047 -0.11666465
0.03589643 -0.32748586 -0.08971754 -0.031304896 0.34333554 -0.08671589 0.12340019 -0.043034874
-0.179046 0.06464522 0.0026667644 -0.07430675 -0.24372967 0.06331352 -0.2059579 -0.10167874
-0.07582844 -0.10064029 -0.011026071 -0.31170562 0.14031562 -0.037952725 0.03304576 -0.093169086
-0.012088183 -0.3585707 0.5709727 0.13973173 -0.013819162 0.09386165 -0.061224617 -0.606557
-0.04094396 -0.092337966 -0.115094304 -0.06703687 -0.14004257 0.106661506 -0.019013299 0.082988456
0.029007709 0.11085572 -0.079052545 -0.22627534 -0.13327573 -0.0121702785 -0.1980784 0.060379036
0.0020448938 -0.056120075 0.035542063 0.007957334 -0.24781615 -0.19566514 0.28156596 0.043701053
-0.120945975 -0.12319263 0.13364579 -0.12481654 -0.07137835 -0.10209008 0.08000904 -0.16372608
-0.22861864 0.2709106 0.023374965 -0.1545648 0.08940676 0.30215243 -0.1735242 -0.01686314
0.036621172 -0.15037253 0.05540947 -0.15020704 -0.0101272 0.21789692 0.30071574 0.18935594
-0.06358629 0.095192775 0.080546476 0.07713955 -0.10177961 -0.11858449 -0.096302174 0.16409723
0.22620203 -0.08393386 0.20907092 0.034044996 0.017311826 0.07872735 0.009447326 -0.4126847
0.106142305 0.057484362 0.07668985 0.029270036 0.1845206 -0.03233871 -0.10068484 -0.12527898
-0.08243364 0.074178346 0.14257085 -0.13096048 -0.046770874 -0.043661743 0.09620714 0.03582422
-0.09251131 0.064514086 -0.19200163 -0.26549616 -0.064388305 -0.03777222 0.41299325 0.016264426
-0.08725246 0.1899675 0.21949677 0.001200619 -0.07659568 0.0038699063 0.084981635 -0.17015345
-0.21686167 0.02342818 -0.024088528 0.02982615 -0.13729762 0.18104187 -0.2447515 0.06561526
0.0688281 -0.20170543 0.0456638 -0.002805711 0.009937046 0.46032596 0.10306392 -0.042891257
-0.0962883 0.46926537 -0.03158894 -0.26009187 -0.103641026 -0.13786444 0.067396745 0.048235316
-0.004724791 0.03327745 0.39027965 -0.24519157 0.009710596 -0.0788301 -0.1028101 -0.15866664
-0.41359773 -0.04672196 -0.032152385 0.055125784 0.16138615 -0.03792939 0.12190195 -0.1264819
0.15604971 -0.05259834 -0.25614202 -0.08417063 -0.05356635 0.3045793 -0.045120984 0.023062149
-0.097666234 -0.15124533 0.18996902 0.081892185 0.054186992 -0.26928532 0.17931664 0.112330325
0.22987688 -0.002010647 0.3963352 -0.04663172 -0.032016177 -0.06663863 0.10567308 -0.4625176
-0.032118816 0.18805021 -0.0069320123 -0.1838152 0.28922415 -0.15960597 -0.029110396 0.026570631
-0.08131635 0.04095784 -0.13319905 0.12574124 -0.17172287 0.2139065 -0.15499608 -0.0009124961

context_transformer_0/ffn_layer_2/intermediate_dense/einsum/Einsum;context_transformer_0/ffn_layer_2/intermediate_dense/Relu;context_transformer_0/ffn_layer_2/intermediate_dense/add f4 [32]
00000000: e4d8 a5bd 3334 fcbd d7f8 6abe 1266 9ebd
00000010: 7c37 bfbd 234f 453c 926a 45be 2ab1 f7be
00000020: 5560 a0bd 7e0d e4bd e4c9 50be 0509 babd
00000030: 8433 39be 6504 50be f826 3fbd f284 8abd
00000040: 4d2a 0fbe 0efb c23e acc0 b6be 448d 8fbd
00000050: 27bf f5be bb56 c5be 5177 9bbe 39d2 85be
00000060: cb85 2cbf 6a82 38bf bc93 19be 9f7f 32be
00000070: e76e 64bd 9dc2 95be 4724 bfbe add2 b4be
-0.08098009 -0.12314644 -0.22946487 -0.07734312 -0.09336755 0.012042793 -0.19278935 -0.48377353
-0.07830874 -0.11135386 -0.20389515 -0.090837516 -0.18086058 -0.20314176 -0.046668023 -0.067636386
-0.1398098 0.38082165 -0.35693872 -0.07009366 -0.479974 -0.38542733 -0.3036447 -0.2613695
-0.6739165 -0.72073996 -0.14997762 -0.17431496 -0.055769827 -0.2925004 -0.37332365 -0.35316983

context_transformer_0/ffn_layer_1/norm/mul;context_transformer_0/ffn_layer_1/norm/add;context_transformer_0/ffn_layer_2/intermediate_dense/einsum/Einsum;context_transformer_0/ffn_layer_2/intermediate_dense/Relu;context_transformer_0/ffn_layer_2/intermediate_dense/add f4 [32, 32]
00000000: c7b0 623b 27fc ad3b fbf3 013c 4d8d 3fbc
00000010: 85f2 0d3c a29b b1bb 3776 a6b9 cef4 dfbc
00000020: e318 b5bb f863 73bc 6391 6a3c 548e abbc
00000030: 69bb 6f3b 3a57 84bc cb58 3cbc adf6 11bd
00000040: d525 a6bc a88a 3a3c 0684 debb 9b13 df3c
00000050: f0fd 41bc 93cc 173c e6e7 ea3c d412 7c3c
00000060: 60ea 6b3c a343 b0bb 538e 81bc cc50 bf3b
00000070: dcb0 73bc 9382 1e3b 5dfa 953c 8a27 40bc
00000080: 071c 4bbd 9bbe 61bc f1a8 f23b c62e 73bc
00000090: 336c 6dbd b7c4 d9bd 3826 663d d916 1cbd
000000a0: 30f9 07bb 1eb4 0bbc 16f9 f03d 4328 4bbd
000000b0: 21f2 4d3d 3e13 083d 8a7c 9bbc 770e 04be
000000c0: f5bf 48bd 810c c6bc 6811 4fb9 fe36 4e3d
000000d0: c7d3 283c 90df c83a 347d 563d 0232 6c3c
000000e0: 530e 953c 2dc9 3fba 0cce 3fbd 336b 91bd
000000f0: ec97 5abb d420 023d ae7e 713d 76cb 74bc
00000100: dd92 24bc c599 ba3b 8d85 053e d548 063e
00000110: ce21 92be 42f7 33be ced1 153e a063 26be
00000120: 7ac3 8b3e e5bc 0e3e 09ac c73d 508e 14be
00000130: 9522 143e 84ca b9bc 8bc7 17bd 7848 2fbd
00000140: d6e4 afbc 7ff6 963d 1211 ccbc afa8 433e
00000150: 0ecd 8d3e 606a e7be 3360 963e 6030 b5bd
00000160: 2923 abbd cebd 6abe c6bd 34bd 9783 62bd
00000170: 0b12 5ebd 8c0c 34bd f73a b2be b19f 34be
00000180: 9905 a8bc 4b0b 9a3c c470 97bc 41c9 33bc
00000190: d7ef 783b c402 6dbc b67c ee3c 923e 233c
000001a0: f0a1 2b3c 8b7d 04bb 2cab d53c c473 1ebd
000001b0: 6c02 a43c 6da7 a4bb 32f8 d83a ef4e aabc
000001c0: 01ea fbbc b921 ccb9 b1aa 713c fd9c b3b9
000001d0: 0285 923b 9b8f 39bc 48ac 0b3c 3f49 3e3a
000001e0: b5b9 d1bc dc01 d53c 2c1e aeba 8b01 423b
000001f0: bcca b3bc f96d 4c3b 6a88 1d3d 1d68 d4bc
00000200: 2b68 b63a 5dc1 013c 5ba5 773c f36a 163c
00000210: 7bb8 9bbc 9178 89bd 20de 3bbc c4d6 29bc
00000220: 3a06 ee3c aed0 a3ba 46ac 343d 2137 ecbc
00000230: b8f3 e03c 873d e03c 1cc9 5ebc a372 6cbd
00000240: 85e2 d7bc 4f1e 0e3c b301 68bc 418e 133d
00000250: 9bed 2dbc d5e1 153d db58 99bc f274 1d3d
00000260: 343f cdbc 12af 913b eae5 89ba 092d 3ebd
00000270: 21ad 073c b275 063d e078 ddbc adaf ca3b
00000280: 8881 5dbd df81 253e 261e 6abd 4e3a 4cbd
00000290: 34a1 a3bd c8db f8bc 06ac 703e 0584 1bbe
000002a0: ffd7 0a3c 5b3a 303e 4523 033e 8257 b93d
000002b0: 4785 2fbc b40a 943c c634 89bc b5c9 c2bc
000002c0: 1cf8 a0bd d731 eb3d 8f56 4bbc 4c79 753c
000002d0: 76fc 24be 2246 223e 20c6 ffbd 7785 353e
000002e0: e7af 34be 86d0 26bc 19f9 ad3d f407 4d3d
000002f0: 50c1 7ebd efd4 863d 6f71 ad3d 46e8 773d
00000300: 9700 83be 0199 b2be 0054 ebbc b86b 07bd
00000310: 30c2 aa3c 15ed b1bd 436a 7cbd 4cb6 023d
00000320: 26ea fb3d b96d 4c3b fdd2 4b3e 9f5c 993d
00000330: 600c b13c 2390 953b cee2 39be b85b b3be
00000340: f12d 81be be07 8e3d 1383 1e3d 3e0f 4fbe
00000350: eb40 093e 9967 fcbd 778e ed3c 7906 ca3d
00000360: 7808 21bd 3dcb cebd dce4 7cbd 79ad 82be
00000370: 22ad 8cbe 7591 3b3e 120d 89be 1b53 75be
00000380: 7d3f 1b3d 798c ba3e 0f15 dfbd d711 baba
00000390: d336 5bbd f480 81bd accc 3cbe 3a78 1a3d
000003a0: 1f1c 873d 442b 403e f002 dbbd 6fc2 cdbd
000003b0: fdbd 2dbc d20d 21bd 1f47 59bd e4b4 c3bd
000003c0: 6201 9e3b 17c7 27be b0ce 0ebe ee22 0c3f
000003d0: a903 f23d bdb7 1dbe 73ff a63e 7aa2 993d
000003e0: c81b 223e 36a4 0bbd effa 873d add1 70bd
000003f0: fbbc 823d c965 563e e08f f6bc 3944 4fbd
0.003459023 0.0053096 0.007931705 -0.011691404 0.008663778 -0.005420164 -0.00031750064 -0.027338412
-0.0055266484 -0.014855377 0.014316889 -0.02094189 0.003658021 -0.016154874 -0.011495779 -0.03563564
-0.020281712 0.011385597 -0.0067906408 0.027231028 -0.011840329 0.009265083 0.02867503 0.015385348
0.014399141 -0.0053791567 -0.015814936 0.005838489 -0.0148737095 0.0024186715 0.01830786 -0.011728177
-0.049587276 -0.013778354 0.0074053933 -0.014842695 -0.057964515 -0.106332235 0.056188792 -0.038107727
-0.0020747893 -0.00852683 0.11766259 -0.049598943 0.05027974 0.033221476 -0.018980283 -0.12896143
-0.04901119 -0.024175884 -0.00019747543 0.050345413 0.010304398 0.0015325416 0.052365497 0.01441622
0.018195307 -0.00073160493 -0.04682736 -0.07100525 -0.0033354713 0.03176959 0.0589587 -0.014941087
-0.010044781 0.0056946003 0.13039227 0.1311372 -0.28541416 -0.1757479 0.14630815 -0.16248941
0.27297574 0.13939245 0.0974961 -0.14507413 0.14466317 -0.022679575 -0.037055533 -0.04279372
-0.021471422 0.07371234 -0.024910484 0.19107316 0.27695507 -0.45198345 0.2937027 -0.088471174
-0.08356316 -0.22923967 -0.044126295 -0.055301275 -0.054216426 -0.043957278 -0.34810612 -0.17639042
-0.020510482 0.018804213 -0.018486388 -0.010973276 0.0037984753 -0.014465991 0.029112201 0.009963648
0.010475621 -0.002021643 0.026082598 -0.03868462 0.020020686 -0.0050248415 0.001655346 -0.020789592
-0.03075123 -0.00038935037 0.014750169 -0.00034258506 0.004471422 -0.011325742 0.008524962 0.00072588393
-0.025601247 0.026001863 -0.0013284138 0.002960297 -0.021947257 0.0031193478 0.038460173 -0.025928551
0.0013916543 0.007919637 0.015115107 0.009180772 -0.019008866 -0.06712449 -0.011466533 -0.0103661455
0.029055703 -0.0012498104 0.044109605 -0.028834881 0.027459964 0.027373089 -0.013597753 -0.057726514
-0.02635313 0.008674218 -0.014160561 0.036024336 -0.010615732 0.036592323 -0.018719127 0.038441606
-0.025054552 0.004445919 -0.001052079 -0.046429668 0.008281023 0.032827087 -0.027035177 0.006185493
-0.05407861 0.16162823 -0.057157658 -0.04986029 -0.079897314 -0.030378237 0.23503122 -0.1518708
0.008474349 0.17209761 0.12806423 0.09049894 -0.010712928 0.01807151 -0.016748797 -0.023777822
-0.07859823 0.114841156 -0.012410774 0.014982533 -0.16111931 0.15847066 -0.12488961 0.17726694
-0.17645226 -0.010181552 0.08494777 0.050056413 -0.062196076 0.065835826 0.08468901 0.060524248
-0.25586388 -0.34882358 -0.028726578 -0.033061713 0.020844549 -0.08687798 -0.061624777 0.031912133
0.1230052 0.003119333 0.19904704 0.07488369 0.021612346 0.0045643016 -0.18152925 -0.35030913
-0.25230363 0.069350705 0.03869922 -0.20220658 0.1340367 -0.12324447 0.028998597 0.09864516
-0.039314717 -0.100973584 -0.061741695 -0.25522974 -0.2747584 0.18317206 -0.26767784 -0.23957483
0.037902344 0.36435297 -0.108926885 -0.001419599 -0.05351908 -0.06323424 -0.18437451 0.037712313
0.065971605 0.18766505 -0.1069392 -0.10046851 -0.010604379 -0.03931982 -0.053046342 -0.095559865
0.004821942 -0.1638454 -0.13946033 0.547408 0.11817104 -0.15402122 0.32616767 0.07501693
0.1583091 -0.03409215 0.06639659 -0.058793712 0.063837014 0.20937265 -0.030097902 -0.05060217

context_transformer_0/ffn_layer_3/intermediate_dense/einsum/Einsum;context_transformer_0/ffn_layer_3/intermediate_dense/Relu;context_transformer_0/ffn_layer_3/intermediate_dense/add f4 [32]
00000000: 5cbc 07be fc44 19bd f0ab 4dbe 7ff0 433e
00000010: 8ffd f0be 632d aabd 7bc8 e8bd 737f 3fbe
00000020: 98b6 51ba 1a80 8bbe f45a 53be d393 15be
00000030: f462 e8be 7894 a2bd ebb9 e23d a433 a73c
00000040: 28ed 22be 063a 183d d7fb 023e 8097 c2be
00000050: 8b6a 44be fd2a e13d cf7b 82be 5210 22be
00000060: cbea cabd 54bb 8fbe 0d4a 62be 66f5 b1bd
00000070: 9d87 04bd 5714 b7bd acab 71bd 0d5a 82bd
-0.13255447 -0.037419304 -0.2008512 0.1913471 -0.4706845 -0.08309438 -0.113663636 -0.18700962
-0.0007999926 -0.2724617 -0.20640165 -0.14607172 -0.45387995 -0.079384744 0.11070617 0.020410366
-0.1591078 0.03716471 0.12791382 -0.3800621 -0.19181268 0.109945275 -0.25485083 -0.15826538
-0.099080645 -0.28072608 -0.2209856 -0.08689384 -0.032355893 -0.089394264 -0.05900161 -0.06364832
